…
__________________________________________________________________________________________________
 Layer (type)                   Output Shape         Param #     Connected to                     
==================================================================================================
 2D_volumetric_input (InputLaye  [(8, 256, 256, 1)]  0           []                               
 r)                                                                                               
                                                                                                  
 conv00_block1_conv (Conv2D)    (8, 256, 256, 8)     72          ['2D_volumetric_input[0][0]']    
                                                                                                  
 conv00_block1_bn (BatchNormali  (8, 256, 256, 8)    56          ['conv00_block1_conv[0][0]']     
 zation)                                                                                          
                                                                                                  
 conv00_block1_actv (Activation  (8, 256, 256, 8)    0           ['conv00_block1_bn[0][0]']       
 )                                                                                                
                                                                                                  
 conv00_block1_concat (Concaten  (8, 256, 256, 9)    0           ['2D_volumetric_input[0][0]',    
 ate)                                                             'conv00_block1_actv[0][0]']     
                                                                                                  
 conv00_block2_conv (Conv2D)    (8, 256, 256, 8)     648         ['conv00_block1_concat[0][0]']   
                                                                                                  
 conv00_block2_bn (BatchNormali  (8, 256, 256, 8)    56          ['conv00_block2_conv[0][0]']     
 zation)                                                                                          
                                                                                                  
 conv00_block2_actv (Activation  (8, 256, 256, 8)    0           ['conv00_block2_bn[0][0]']       
 )                                                                                                
                                                                                                  
 conv00_block2_concat (Concaten  (8, 256, 256, 17)   0           ['conv00_block1_concat[0][0]',   
 ate)                                                             'conv00_block2_actv[0][0]']     
                                                                                                  
 conv00_block3_conv (Conv2D)    (8, 256, 256, 8)     1224        ['conv00_block2_concat[0][0]']   
                                                                                                  
 conv00_block3_bn (BatchNormali  (8, 256, 256, 8)    56          ['conv00_block3_conv[0][0]']     
 zation)                                                                                          
                                                                                                  
 conv00_block3_actv (Activation  (8, 256, 256, 8)    0           ['conv00_block3_bn[0][0]']       
 )                                                                                                
                                                                                                  
 conv00_block3_concat (Concaten  (8, 256, 256, 25)   0           ['conv00_block2_concat[0][0]',   
 ate)                                                             'conv00_block3_actv[0][0]']     
                                                                                                  
 conv00_block4_conv (Conv2D)    (8, 256, 256, 8)     1800        ['conv00_block3_concat[0][0]']   
                                                                                                  
 conv00_block4_bn (BatchNormali  (8, 256, 256, 8)    56          ['conv00_block4_conv[0][0]']     
 zation)                                                                                          
                                                                                                  
 conv00_block4_actv (Activation  (8, 256, 256, 8)    0           ['conv00_block4_bn[0][0]']       
 )                                                                                                
                                                                                                  
 conv00_block4_concat (Concaten  (8, 256, 256, 33)   0           ['conv00_block3_concat[0][0]',   
 ate)                                                             'conv00_block4_actv[0][0]']     
                                                                                                  
 conv00_block5_conv (Conv2D)    (8, 256, 256, 8)     2376        ['conv00_block4_concat[0][0]']   
                                                                                                  
 conv00_block5_bn (BatchNormali  (8, 256, 256, 8)    56          ['conv00_block5_conv[0][0]']     
 zation)                                                                                          
                                                                                                  
 conv00_block5_actv (Activation  (8, 256, 256, 8)    0           ['conv00_block5_bn[0][0]']       
 )                                                                                                
                                                                                                  
 conv00_block5_concat (Concaten  (8, 256, 256, 41)   0           ['conv00_block4_concat[0][0]',   
 ate)                                                             'conv00_block5_actv[0][0]']     
                                                                                                  
 conv00_block6_conv (Conv2D)    (8, 256, 256, 8)     2952        ['conv00_block5_concat[0][0]']   
                                                                                                  
 conv00_block6_bn (BatchNormali  (8, 256, 256, 8)    56          ['conv00_block6_conv[0][0]']     
 zation)                                                                                          
                                                                                                  
 conv00_block6_actv (Activation  (8, 256, 256, 8)    0           ['conv00_block6_bn[0][0]']       
 )                                                                                                
                                                                                                  
 conv00_block6_concat (Concaten  (8, 256, 256, 49)   0           ['conv00_block5_concat[0][0]',   
 ate)                                                             'conv00_block6_actv[0][0]']     
                                                                                                  
 down00_conv (Conv2D)           (8, 128, 128, 24)    4704        ['conv00_block6_concat[0][0]']   
                                                                                                  
 down00_bn (BatchNormalization)  (8, 128, 128, 24)   168         ['down00_conv[0][0]']            
                                                                                                  
 down00_actv (Activation)       (8, 128, 128, 24)    0           ['down00_bn[0][0]']              
                                                                                                  
 conv10_block1_1_conv (Conv2D)  (8, 128, 128, 32)    768         ['down00_actv[0][0]']            
                                                                                                  
 conv10_block1_1_bn (BatchNorma  (8, 128, 128, 32)   224         ['conv10_block1_1_conv[0][0]']   
 lization)                                                                                        
                                                                                                  
 conv10_block1_1_actv (Activati  (8, 128, 128, 32)   0           ['conv10_block1_1_bn[0][0]']     
 on)                                                                                              
                                                                                                  
 conv10_block1_2_conv (Conv2D)  (8, 128, 128, 8)     2304        ['conv10_block1_1_actv[0][0]']   
                                                                                                  
 conv10_block1_2_bn (BatchNorma  (8, 128, 128, 8)    56          ['conv10_block1_2_conv[0][0]']   
 lization)                                                                                        
                                                                                                  
 conv10_block1_2_actv (Activati  (8, 128, 128, 8)    0           ['conv10_block1_2_bn[0][0]']     
 on)                                                                                              
                                                                                                  
 conv10_block1_drop (Dropout)   (8, 128, 128, 8)     0           ['conv10_block1_2_actv[0][0]']   
                                                                                                  
 conv10_block1_concat (Concaten  (8, 128, 128, 32)   0           ['down00_actv[0][0]',            
 ate)                                                             'conv10_block1_drop[0][0]']     
                                                                                                  
 conv10_block2_1_conv (Conv2D)  (8, 128, 128, 32)    1024        ['conv10_block1_concat[0][0]']   
                                                                                                  
 conv10_block2_1_bn (BatchNorma  (8, 128, 128, 32)   224         ['conv10_block2_1_conv[0][0]']   
 lization)                                                                                        
                                                                                                  
 conv10_block2_1_actv (Activati  (8, 128, 128, 32)   0           ['conv10_block2_1_bn[0][0]']     
 on)                                                                                              
                                                                                                  
 conv10_block2_2_conv (Conv2D)  (8, 128, 128, 8)     2304        ['conv10_block2_1_actv[0][0]']   
                                                                                                  
 conv10_block2_2_bn (BatchNorma  (8, 128, 128, 8)    56          ['conv10_block2_2_conv[0][0]']   
 lization)                                                                                        
                                                                                                  
 conv10_block2_2_actv (Activati  (8, 128, 128, 8)    0           ['conv10_block2_2_bn[0][0]']     
 on)                                                                                              
                                                                                                  
 conv10_block2_drop (Dropout)   (8, 128, 128, 8)     0           ['conv10_block2_2_actv[0][0]']   
                                                                                                  
 conv10_block2_concat (Concaten  (8, 128, 128, 40)   0           ['conv10_block1_concat[0][0]',   
 ate)                                                             'conv10_block2_drop[0][0]']     
                                                                                                  
 conv10_block3_1_conv (Conv2D)  (8, 128, 128, 32)    1280        ['conv10_block2_concat[0][0]']   
                                                                                                  
 conv10_block3_1_bn (BatchNorma  (8, 128, 128, 32)   224         ['conv10_block3_1_conv[0][0]']   
 lization)                                                                                        
                                                                                                  
 conv10_block3_1_actv (Activati  (8, 128, 128, 32)   0           ['conv10_block3_1_bn[0][0]']     
 on)                                                                                              
                                                                                                  
 conv10_block3_2_conv (Conv2D)  (8, 128, 128, 8)     2304        ['conv10_block3_1_actv[0][0]']   
                                                                                                  
 conv10_block3_2_bn (BatchNorma  (8, 128, 128, 8)    56          ['conv10_block3_2_conv[0][0]']   
 lization)                                                                                        
                                                                                                  
 conv10_block3_2_actv (Activati  (8, 128, 128, 8)    0           ['conv10_block3_2_bn[0][0]']     
 on)                                                                                              
                                                                                                  
 conv10_block3_drop (Dropout)   (8, 128, 128, 8)     0           ['conv10_block3_2_actv[0][0]']   
                                                                                                  
 conv10_block3_concat (Concaten  (8, 128, 128, 48)   0           ['conv10_block2_concat[0][0]',   
 ate)                                                             'conv10_block3_drop[0][0]']     
                                                                                                  
 conv10_block4_1_conv (Conv2D)  (8, 128, 128, 32)    1536        ['conv10_block3_concat[0][0]']   
                                                                                                  
 conv10_block4_1_bn (BatchNorma  (8, 128, 128, 32)   224         ['conv10_block4_1_conv[0][0]']   
 lization)                                                                                        
                                                                                                  
 conv10_block4_1_actv (Activati  (8, 128, 128, 32)   0           ['conv10_block4_1_bn[0][0]']     
 on)                                                                                              
                                                                                                  
 conv10_block4_2_conv (Conv2D)  (8, 128, 128, 8)     2304        ['conv10_block4_1_actv[0][0]']   
                                                                                                  
 conv10_block4_2_bn (BatchNorma  (8, 128, 128, 8)    56          ['conv10_block4_2_conv[0][0]']   
 lization)                                                                                        
                                                                                                  
 conv10_block4_2_actv (Activati  (8, 128, 128, 8)    0           ['conv10_block4_2_bn[0][0]']     
 on)                                                                                              
                                                                                                  
 conv10_block4_drop (Dropout)   (8, 128, 128, 8)     0           ['conv10_block4_2_actv[0][0]']   
                                                                                                  
 conv10_block4_concat (Concaten  (8, 128, 128, 56)   0           ['conv10_block3_concat[0][0]',   
 ate)                                                             'conv10_block4_drop[0][0]']     
                                                                                                  
 conv10_block5_1_conv (Conv2D)  (8, 128, 128, 32)    1792        ['conv10_block4_concat[0][0]']   
                                                                                                  
 conv10_block5_1_bn (BatchNorma  (8, 128, 128, 32)   224         ['conv10_block5_1_conv[0][0]']   
 lization)                                                                                        
                                                                                                  
 conv10_block5_1_actv (Activati  (8, 128, 128, 32)   0           ['conv10_block5_1_bn[0][0]']     
 on)                                                                                              
                                                                                                  
 conv10_block5_2_conv (Conv2D)  (8, 128, 128, 8)     2304        ['conv10_block5_1_actv[0][0]']   
                                                                                                  
 conv10_block5_2_bn (BatchNorma  (8, 128, 128, 8)    56          ['conv10_block5_2_conv[0][0]']   
 lization)                                                                                        
                                                                                                  
 conv10_block5_2_actv (Activati  (8, 128, 128, 8)    0           ['conv10_block5_2_bn[0][0]']     
 on)                                                                                              
                                                                                                  
 conv10_block5_drop (Dropout)   (8, 128, 128, 8)     0           ['conv10_block5_2_actv[0][0]']   
                                                                                                  
 conv10_block5_concat (Concaten  (8, 128, 128, 64)   0           ['conv10_block4_concat[0][0]',   
 ate)                                                             'conv10_block5_drop[0][0]']     
                                                                                                  
 conv10_block6_1_conv (Conv2D)  (8, 128, 128, 32)    2048        ['conv10_block5_concat[0][0]']   
                                                                                                  
 conv10_block6_1_bn (BatchNorma  (8, 128, 128, 32)   224         ['conv10_block6_1_conv[0][0]']   
 lization)                                                                                        
                                                                                                  
 conv10_block6_1_actv (Activati  (8, 128, 128, 32)   0           ['conv10_block6_1_bn[0][0]']     
 on)                                                                                              
                                                                                                  
 conv10_block6_2_conv (Conv2D)  (8, 128, 128, 8)     2304        ['conv10_block6_1_actv[0][0]']   
                                                                                                  
 conv10_block6_2_bn (BatchNorma  (8, 128, 128, 8)    56          ['conv10_block6_2_conv[0][0]']   
 lization)                                                                                        
                                                                                                  
 conv10_block6_2_actv (Activati  (8, 128, 128, 8)    0           ['conv10_block6_2_bn[0][0]']     
 on)                                                                                              
                                                                                                  
 conv10_block6_drop (Dropout)   (8, 128, 128, 8)     0           ['conv10_block6_2_actv[0][0]']   
                                                                                                  
 conv10_block6_concat (Concaten  (8, 128, 128, 72)   0           ['conv10_block5_concat[0][0]',   
 ate)                                                             'conv10_block6_drop[0][0]']     
                                                                                                  
 conv10_block7_1_conv (Conv2D)  (8, 128, 128, 32)    2304        ['conv10_block6_concat[0][0]']   
                                                                                                  
 conv10_block7_1_bn (BatchNorma  (8, 128, 128, 32)   224         ['conv10_block7_1_conv[0][0]']   
 lization)                                                                                        
                                                                                                  
 conv10_block7_1_actv (Activati  (8, 128, 128, 32)   0           ['conv10_block7_1_bn[0][0]']     
 on)                                                                                              
                                                                                                  
 conv10_block7_2_conv (Conv2D)  (8, 128, 128, 8)     2304        ['conv10_block7_1_actv[0][0]']   
                                                                                                  
 conv10_block7_2_bn (BatchNorma  (8, 128, 128, 8)    56          ['conv10_block7_2_conv[0][0]']   
 lization)                                                                                        
                                                                                                  
 conv10_block7_2_actv (Activati  (8, 128, 128, 8)    0           ['conv10_block7_2_bn[0][0]']     
 on)                                                                                              
                                                                                                  
 conv10_block7_drop (Dropout)   (8, 128, 128, 8)     0           ['conv10_block7_2_actv[0][0]']   
                                                                                                  
 conv10_block7_concat (Concaten  (8, 128, 128, 80)   0           ['conv10_block6_concat[0][0]',   
 ate)                                                             'conv10_block7_drop[0][0]']     
                                                                                                  
 conv10_block8_1_conv (Conv2D)  (8, 128, 128, 32)    2560        ['conv10_block7_concat[0][0]']   
                                                                                                  
 conv10_block8_1_bn (BatchNorma  (8, 128, 128, 32)   224         ['conv10_block8_1_conv[0][0]']   
 lization)                                                                                        
                                                                                                  
 conv10_block8_1_actv (Activati  (8, 128, 128, 32)   0           ['conv10_block8_1_bn[0][0]']     
 on)                                                                                              
                                                                                                  
 conv10_block8_2_conv (Conv2D)  (8, 128, 128, 8)     2304        ['conv10_block8_1_actv[0][0]']   
                                                                                                  
 conv10_block8_2_bn (BatchNorma  (8, 128, 128, 8)    56          ['conv10_block8_2_conv[0][0]']   
 lization)                                                                                        
                                                                                                  
 conv10_block8_2_actv (Activati  (8, 128, 128, 8)    0           ['conv10_block8_2_bn[0][0]']     
 on)                                                                                              
                                                                                                  
 conv10_block8_drop (Dropout)   (8, 128, 128, 8)     0           ['conv10_block8_2_actv[0][0]']   
                                                                                                  
 conv10_block8_concat (Concaten  (8, 128, 128, 88)   0           ['conv10_block7_concat[0][0]',   
 ate)                                                             'conv10_block8_drop[0][0]']     
                                                                                                  
 conv10_block9_1_conv (Conv2D)  (8, 128, 128, 32)    2816        ['conv10_block8_concat[0][0]']   
                                                                                                  
 conv10_block9_1_bn (BatchNorma  (8, 128, 128, 32)   224         ['conv10_block9_1_conv[0][0]']   
 lization)                                                                                        
                                                                                                  
 conv10_block9_1_actv (Activati  (8, 128, 128, 32)   0           ['conv10_block9_1_bn[0][0]']     
 on)                                                                                              
                                                                                                  
 conv10_block9_2_conv (Conv2D)  (8, 128, 128, 8)     2304        ['conv10_block9_1_actv[0][0]']   
                                                                                                  
 conv10_block9_2_bn (BatchNorma  (8, 128, 128, 8)    56          ['conv10_block9_2_conv[0][0]']   
 lization)                                                                                        
                                                                                                  
 conv10_block9_2_actv (Activati  (8, 128, 128, 8)    0           ['conv10_block9_2_bn[0][0]']     
 on)                                                                                              
                                                                                                  
 conv10_block9_drop (Dropout)   (8, 128, 128, 8)     0           ['conv10_block9_2_actv[0][0]']   
                                                                                                  
 conv10_block9_concat (Concaten  (8, 128, 128, 96)   0           ['conv10_block8_concat[0][0]',   
 ate)                                                             'conv10_block9_drop[0][0]']     
                                                                                                  
 conv10_block10_1_conv (Conv2D)  (8, 128, 128, 32)   3072        ['conv10_block9_concat[0][0]']   
                                                                                                  
 conv10_block10_1_bn (BatchNorm  (8, 128, 128, 32)   224         ['conv10_block10_1_conv[0][0]']  
 alization)                                                                                       
                                                                                                  
 conv10_block10_1_actv (Activat  (8, 128, 128, 32)   0           ['conv10_block10_1_bn[0][0]']    
 ion)                                                                                             
                                                                                                  
 conv10_block10_2_conv (Conv2D)  (8, 128, 128, 8)    2304        ['conv10_block10_1_actv[0][0]']  
                                                                                                  
 conv10_block10_2_bn (BatchNorm  (8, 128, 128, 8)    56          ['conv10_block10_2_conv[0][0]']  
 alization)                                                                                       
                                                                                                  
 conv10_block10_2_actv (Activat  (8, 128, 128, 8)    0           ['conv10_block10_2_bn[0][0]']    
 ion)                                                                                             
                                                                                                  
 conv10_block10_drop (Dropout)  (8, 128, 128, 8)     0           ['conv10_block10_2_actv[0][0]']  
                                                                                                  
 conv10_block10_concat (Concate  (8, 128, 128, 104)  0           ['conv10_block9_concat[0][0]',   
 nate)                                                            'conv10_block10_drop[0][0]']    
                                                                                                  
 conv10_block11_1_conv (Conv2D)  (8, 128, 128, 32)   3328        ['conv10_block10_concat[0][0]']  
                                                                                                  
 conv10_block11_1_bn (BatchNorm  (8, 128, 128, 32)   224         ['conv10_block11_1_conv[0][0]']  
 alization)                                                                                       
                                                                                                  
 conv10_block11_1_actv (Activat  (8, 128, 128, 32)   0           ['conv10_block11_1_bn[0][0]']    
 ion)                                                                                             
                                                                                                  
 conv10_block11_2_conv (Conv2D)  (8, 128, 128, 8)    2304        ['conv10_block11_1_actv[0][0]']  
                                                                                                  
 conv10_block11_2_bn (BatchNorm  (8, 128, 128, 8)    56          ['conv10_block11_2_conv[0][0]']  
 alization)                                                                                       
                                                                                                  
 conv10_block11_2_actv (Activat  (8, 128, 128, 8)    0           ['conv10_block11_2_bn[0][0]']    
 ion)                                                                                             
                                                                                                  
 conv10_block11_drop (Dropout)  (8, 128, 128, 8)     0           ['conv10_block11_2_actv[0][0]']  
                                                                                                  
 conv10_block11_concat (Concate  (8, 128, 128, 112)  0           ['conv10_block10_concat[0][0]',  
 nate)                                                            'conv10_block11_drop[0][0]']    
                                                                                                  
 conv10_block12_1_conv (Conv2D)  (8, 128, 128, 32)   3584        ['conv10_block11_concat[0][0]']  
                                                                                                  
 conv10_block12_1_bn (BatchNorm  (8, 128, 128, 32)   224         ['conv10_block12_1_conv[0][0]']  
 alization)                                                                                       
                                                                                                  
 conv10_block12_1_actv (Activat  (8, 128, 128, 32)   0           ['conv10_block12_1_bn[0][0]']    
 ion)                                                                                             
                                                                                                  
 conv10_block12_2_conv (Conv2D)  (8, 128, 128, 8)    2304        ['conv10_block12_1_actv[0][0]']  
                                                                                                  
 conv10_block12_2_bn (BatchNorm  (8, 128, 128, 8)    56          ['conv10_block12_2_conv[0][0]']  
 alization)                                                                                       
                                                                                                  
 conv10_block12_2_actv (Activat  (8, 128, 128, 8)    0           ['conv10_block12_2_bn[0][0]']    
 ion)                                                                                             
                                                                                                  
 conv10_block12_drop (Dropout)  (8, 128, 128, 8)     0           ['conv10_block12_2_actv[0][0]']  
                                                                                                  
 conv10_block12_concat (Concate  (8, 128, 128, 120)  0           ['conv10_block11_concat[0][0]',  
 nate)                                                            'conv10_block12_drop[0][0]']    
                                                                                                  
 down10_conv (Conv2D)           (8, 64, 64, 48)      23040       ['conv10_block12_concat[0][0]']  
                                                                                                  
 down10_bn (BatchNormalization)  (8, 64, 64, 48)     336         ['down10_conv[0][0]']            
                                                                                                  
 down10_actv (Activation)       (8, 64, 64, 48)      0           ['down10_bn[0][0]']              
                                                                                                  
 conv20_block1_1_conv (Conv2D)  (8, 64, 64, 32)      1536        ['down10_actv[0][0]']            
                                                                                                  
 conv20_block1_1_bn (BatchNorma  (8, 64, 64, 32)     224         ['conv20_block1_1_conv[0][0]']   
 lization)                                                                                        
                                                                                                  
 conv20_block1_1_actv (Activati  (8, 64, 64, 32)     0           ['conv20_block1_1_bn[0][0]']     
 on)                                                                                              
                                                                                                  
 conv20_block1_2_conv (Conv2D)  (8, 64, 64, 8)       2304        ['conv20_block1_1_actv[0][0]']   
                                                                                                  
 conv20_block1_2_bn (BatchNorma  (8, 64, 64, 8)      56          ['conv20_block1_2_conv[0][0]']   
 lization)                                                                                        
                                                                                                  
 conv20_block1_2_actv (Activati  (8, 64, 64, 8)      0           ['conv20_block1_2_bn[0][0]']     
 on)                                                                                              
                                                                                                  
 conv20_block1_drop (Dropout)   (8, 64, 64, 8)       0           ['conv20_block1_2_actv[0][0]']   
                                                                                                  
 conv20_block1_concat (Concaten  (8, 64, 64, 56)     0           ['down10_actv[0][0]',            
 ate)                                                             'conv20_block1_drop[0][0]']     
                                                                                                  
 conv20_block2_1_conv (Conv2D)  (8, 64, 64, 32)      1792        ['conv20_block1_concat[0][0]']   
                                                                                                  
 conv20_block2_1_bn (BatchNorma  (8, 64, 64, 32)     224         ['conv20_block2_1_conv[0][0]']   
 lization)                                                                                        
                                                                                                  
 conv20_block2_1_actv (Activati  (8, 64, 64, 32)     0           ['conv20_block2_1_bn[0][0]']     
 on)                                                                                              
                                                                                                  
 conv20_block2_2_conv (Conv2D)  (8, 64, 64, 8)       2304        ['conv20_block2_1_actv[0][0]']   
                                                                                                  
 conv20_block2_2_bn (BatchNorma  (8, 64, 64, 8)      56          ['conv20_block2_2_conv[0][0]']   
 lization)                                                                                        
                                                                                                  
 conv20_block2_2_actv (Activati  (8, 64, 64, 8)      0           ['conv20_block2_2_bn[0][0]']     
 on)                                                                                              
                                                                                                  
 conv20_block2_drop (Dropout)   (8, 64, 64, 8)       0           ['conv20_block2_2_actv[0][0]']   
                                                                                                  
 conv20_block2_concat (Concaten  (8, 64, 64, 64)     0           ['conv20_block1_concat[0][0]',   
 ate)                                                             'conv20_block2_drop[0][0]']     
                                                                                                  
 conv20_block3_1_conv (Conv2D)  (8, 64, 64, 32)      2048        ['conv20_block2_concat[0][0]']   
                                                                                                  
 conv20_block3_1_bn (BatchNorma  (8, 64, 64, 32)     224         ['conv20_block3_1_conv[0][0]']   
 lization)                                                                                        
                                                                                                  
 conv20_block3_1_actv (Activati  (8, 64, 64, 32)     0           ['conv20_block3_1_bn[0][0]']     
 on)                                                                                              
                                                                                                  
 conv20_block3_2_conv (Conv2D)  (8, 64, 64, 8)       2304        ['conv20_block3_1_actv[0][0]']   
                                                                                                  
 conv20_block3_2_bn (BatchNorma  (8, 64, 64, 8)      56          ['conv20_block3_2_conv[0][0]']   
 lization)                                                                                        
                                                                                                  
 conv20_block3_2_actv (Activati  (8, 64, 64, 8)      0           ['conv20_block3_2_bn[0][0]']     
 on)                                                                                              
                                                                                                  
 conv20_block3_drop (Dropout)   (8, 64, 64, 8)       0           ['conv20_block3_2_actv[0][0]']   
                                                                                                  
 conv20_block3_concat (Concaten  (8, 64, 64, 72)     0           ['conv20_block2_concat[0][0]',   
 ate)                                                             'conv20_block3_drop[0][0]']     
                                                                                                  
 conv20_block4_1_conv (Conv2D)  (8, 64, 64, 32)      2304        ['conv20_block3_concat[0][0]']   
                                                                                                  
 conv20_block4_1_bn (BatchNorma  (8, 64, 64, 32)     224         ['conv20_block4_1_conv[0][0]']   
 lization)                                                                                        
                                                                                                  
 conv20_block4_1_actv (Activati  (8, 64, 64, 32)     0           ['conv20_block4_1_bn[0][0]']     
 on)                                                                                              
                                                                                                  
 conv20_block4_2_conv (Conv2D)  (8, 64, 64, 8)       2304        ['conv20_block4_1_actv[0][0]']   
                                                                                                  
 conv20_block4_2_bn (BatchNorma  (8, 64, 64, 8)      56          ['conv20_block4_2_conv[0][0]']   
 lization)                                                                                        
                                                                                                  
 conv20_block4_2_actv (Activati  (8, 64, 64, 8)      0           ['conv20_block4_2_bn[0][0]']     
 on)                                                                                              
                                                                                                  
 conv20_block4_drop (Dropout)   (8, 64, 64, 8)       0           ['conv20_block4_2_actv[0][0]']   
                                                                                                  
 conv20_block4_concat (Concaten  (8, 64, 64, 80)     0           ['conv20_block3_concat[0][0]',   
 ate)                                                             'conv20_block4_drop[0][0]']     
                                                                                                  
 conv20_block5_1_conv (Conv2D)  (8, 64, 64, 32)      2560        ['conv20_block4_concat[0][0]']   
                                                                                                  
 conv20_block5_1_bn (BatchNorma  (8, 64, 64, 32)     224         ['conv20_block5_1_conv[0][0]']   
 lization)                                                                                        
                                                                                                  
 conv20_block5_1_actv (Activati  (8, 64, 64, 32)     0           ['conv20_block5_1_bn[0][0]']     
 on)                                                                                              
                                                                                                  
 conv20_block5_2_conv (Conv2D)  (8, 64, 64, 8)       2304        ['conv20_block5_1_actv[0][0]']   
                                                                                                  
 conv20_block5_2_bn (BatchNorma  (8, 64, 64, 8)      56          ['conv20_block5_2_conv[0][0]']   
 lization)                                                                                        
                                                                                                  
 conv20_block5_2_actv (Activati  (8, 64, 64, 8)      0           ['conv20_block5_2_bn[0][0]']     
 on)                                                                                              
                                                                                                  
 conv20_block5_drop (Dropout)   (8, 64, 64, 8)       0           ['conv20_block5_2_actv[0][0]']   
                                                                                                  
 conv20_block5_concat (Concaten  (8, 64, 64, 88)     0           ['conv20_block4_concat[0][0]',   
 ate)                                                             'conv20_block5_drop[0][0]']     
                                                                                                  
 conv20_block6_1_conv (Conv2D)  (8, 64, 64, 32)      2816        ['conv20_block5_concat[0][0]']   
                                                                                                  
 conv20_block6_1_bn (BatchNorma  (8, 64, 64, 32)     224         ['conv20_block6_1_conv[0][0]']   
 lization)                                                                                        
                                                                                                  
 conv20_block6_1_actv (Activati  (8, 64, 64, 32)     0           ['conv20_block6_1_bn[0][0]']     
 on)                                                                                              
                                                                                                  
 conv20_block6_2_conv (Conv2D)  (8, 64, 64, 8)       2304        ['conv20_block6_1_actv[0][0]']   
                                                                                                  
 conv20_block6_2_bn (BatchNorma  (8, 64, 64, 8)      56          ['conv20_block6_2_conv[0][0]']   
 lization)                                                                                        
                                                                                                  
 conv20_block6_2_actv (Activati  (8, 64, 64, 8)      0           ['conv20_block6_2_bn[0][0]']     
 on)                                                                                              
                                                                                                  
 conv20_block6_drop (Dropout)   (8, 64, 64, 8)       0           ['conv20_block6_2_actv[0][0]']   
                                                                                                  
 conv20_block6_concat (Concaten  (8, 64, 64, 96)     0           ['conv20_block5_concat[0][0]',   
 ate)                                                             'conv20_block6_drop[0][0]']     
                                                                                                  
 conv20_block7_1_conv (Conv2D)  (8, 64, 64, 32)      3072        ['conv20_block6_concat[0][0]']   
                                                                                                  
 conv20_block7_1_bn (BatchNorma  (8, 64, 64, 32)     224         ['conv20_block7_1_conv[0][0]']   
 lization)                                                                                        
                                                                                                  
 conv20_block7_1_actv (Activati  (8, 64, 64, 32)     0           ['conv20_block7_1_bn[0][0]']     
 on)                                                                                              
                                                                                                  
 conv20_block7_2_conv (Conv2D)  (8, 64, 64, 8)       2304        ['conv20_block7_1_actv[0][0]']   
                                                                                                  
 conv20_block7_2_bn (BatchNorma  (8, 64, 64, 8)      56          ['conv20_block7_2_conv[0][0]']   
 lization)                                                                                        
                                                                                                  
 conv20_block7_2_actv (Activati  (8, 64, 64, 8)      0           ['conv20_block7_2_bn[0][0]']     
 on)                                                                                              
                                                                                                  
 conv20_block7_drop (Dropout)   (8, 64, 64, 8)       0           ['conv20_block7_2_actv[0][0]']   
                                                                                                  
 conv20_block7_concat (Concaten  (8, 64, 64, 104)    0           ['conv20_block6_concat[0][0]',   
 ate)                                                             'conv20_block7_drop[0][0]']     
                                                                                                  
 conv20_block8_1_conv (Conv2D)  (8, 64, 64, 32)      3328        ['conv20_block7_concat[0][0]']   
                                                                                                  
 conv20_block8_1_bn (BatchNorma  (8, 64, 64, 32)     224         ['conv20_block8_1_conv[0][0]']   
 lization)                                                                                        
                                                                                                  
 conv20_block8_1_actv (Activati  (8, 64, 64, 32)     0           ['conv20_block8_1_bn[0][0]']     
 on)                                                                                              
                                                                                                  
 conv20_block8_2_conv (Conv2D)  (8, 64, 64, 8)       2304        ['conv20_block8_1_actv[0][0]']   
                                                                                                  
 conv20_block8_2_bn (BatchNorma  (8, 64, 64, 8)      56          ['conv20_block8_2_conv[0][0]']   
 lization)                                                                                        
                                                                                                  
 conv20_block8_2_actv (Activati  (8, 64, 64, 8)      0           ['conv20_block8_2_bn[0][0]']     
 on)                                                                                              
                                                                                                  
 conv20_block8_drop (Dropout)   (8, 64, 64, 8)       0           ['conv20_block8_2_actv[0][0]']   
                                                                                                  
 conv20_block8_concat (Concaten  (8, 64, 64, 112)    0           ['conv20_block7_concat[0][0]',   
 ate)                                                             'conv20_block8_drop[0][0]']     
                                                                                                  
 conv20_block9_1_conv (Conv2D)  (8, 64, 64, 32)      3584        ['conv20_block8_concat[0][0]']   
                                                                                                  
 conv20_block9_1_bn (BatchNorma  (8, 64, 64, 32)     224         ['conv20_block9_1_conv[0][0]']   
 lization)                                                                                        
                                                                                                  
 conv20_block9_1_actv (Activati  (8, 64, 64, 32)     0           ['conv20_block9_1_bn[0][0]']     
 on)                                                                                              
                                                                                                  
 conv20_block9_2_conv (Conv2D)  (8, 64, 64, 8)       2304        ['conv20_block9_1_actv[0][0]']   
                                                                                                  
 conv20_block9_2_bn (BatchNorma  (8, 64, 64, 8)      56          ['conv20_block9_2_conv[0][0]']   
 lization)                                                                                        
                                                                                                  
 conv20_block9_2_actv (Activati  (8, 64, 64, 8)      0           ['conv20_block9_2_bn[0][0]']     
 on)                                                                                              
                                                                                                  
 conv20_block9_drop (Dropout)   (8, 64, 64, 8)       0           ['conv20_block9_2_actv[0][0]']   
                                                                                                  
 conv20_block9_concat (Concaten  (8, 64, 64, 120)    0           ['conv20_block8_concat[0][0]',   
 ate)                                                             'conv20_block9_drop[0][0]']     
                                                                                                  
 conv20_block10_1_conv (Conv2D)  (8, 64, 64, 32)     3840        ['conv20_block9_concat[0][0]']   
                                                                                                  
 conv20_block10_1_bn (BatchNorm  (8, 64, 64, 32)     224         ['conv20_block10_1_conv[0][0]']  
 alization)                                                                                       
                                                                                                  
 conv20_block10_1_actv (Activat  (8, 64, 64, 32)     0           ['conv20_block10_1_bn[0][0]']    
 ion)                                                                                             
                                                                                                  
 conv20_block10_2_conv (Conv2D)  (8, 64, 64, 8)      2304        ['conv20_block10_1_actv[0][0]']  
                                                                                                  
 conv20_block10_2_bn (BatchNorm  (8, 64, 64, 8)      56          ['conv20_block10_2_conv[0][0]']  
 alization)                                                                                       
                                                                                                  
 conv20_block10_2_actv (Activat  (8, 64, 64, 8)      0           ['conv20_block10_2_bn[0][0]']    
 ion)                                                                                             
                                                                                                  
 conv20_block10_drop (Dropout)  (8, 64, 64, 8)       0           ['conv20_block10_2_actv[0][0]']  
                                                                                                  
 conv20_block10_concat (Concate  (8, 64, 64, 128)    0           ['conv20_block9_concat[0][0]',   
 nate)                                                            'conv20_block10_drop[0][0]']    
                                                                                                  
 conv20_block11_1_conv (Conv2D)  (8, 64, 64, 32)     4096        ['conv20_block10_concat[0][0]']  
                                                                                                  
 conv20_block11_1_bn (BatchNorm  (8, 64, 64, 32)     224         ['conv20_block11_1_conv[0][0]']  
 alization)                                                                                       
                                                                                                  
 conv20_block11_1_actv (Activat  (8, 64, 64, 32)     0           ['conv20_block11_1_bn[0][0]']    
 ion)                                                                                             
                                                                                                  
 conv20_block11_2_conv (Conv2D)  (8, 64, 64, 8)      2304        ['conv20_block11_1_actv[0][0]']  
                                                                                                  
 conv20_block11_2_bn (BatchNorm  (8, 64, 64, 8)      56          ['conv20_block11_2_conv[0][0]']  
 alization)                                                                                       
                                                                                                  
 conv20_block11_2_actv (Activat  (8, 64, 64, 8)      0           ['conv20_block11_2_bn[0][0]']    
 ion)                                                                                             
                                                                                                  
 conv20_block11_drop (Dropout)  (8, 64, 64, 8)       0           ['conv20_block11_2_actv[0][0]']  
                                                                                                  
 conv20_block11_concat (Concate  (8, 64, 64, 136)    0           ['conv20_block10_concat[0][0]',  
 nate)                                                            'conv20_block11_drop[0][0]']    
                                                                                                  
 conv20_block12_1_conv (Conv2D)  (8, 64, 64, 32)     4352        ['conv20_block11_concat[0][0]']  
                                                                                                  
 conv20_block12_1_bn (BatchNorm  (8, 64, 64, 32)     224         ['conv20_block12_1_conv[0][0]']  
 alization)                                                                                       
                                                                                                  
 conv20_block12_1_actv (Activat  (8, 64, 64, 32)     0           ['conv20_block12_1_bn[0][0]']    
 ion)                                                                                             
                                                                                                  
 conv20_block12_2_conv (Conv2D)  (8, 64, 64, 8)      2304        ['conv20_block12_1_actv[0][0]']  
                                                                                                  
 conv20_block12_2_bn (BatchNorm  (8, 64, 64, 8)      56          ['conv20_block12_2_conv[0][0]']  
 alization)                                                                                       
                                                                                                  
 conv20_block12_2_actv (Activat  (8, 64, 64, 8)      0           ['conv20_block12_2_bn[0][0]']    
 ion)                                                                                             
                                                                                                  
 conv20_block12_drop (Dropout)  (8, 64, 64, 8)       0           ['conv20_block12_2_actv[0][0]']  
                                                                                                  
 conv20_block12_concat (Concate  (8, 64, 64, 144)    0           ['conv20_block11_concat[0][0]',  
 nate)                                                            'conv20_block12_drop[0][0]']    
                                                                                                  
 conv20_block13_1_conv (Conv2D)  (8, 64, 64, 32)     4608        ['conv20_block12_concat[0][0]']  
                                                                                                  
 conv20_block13_1_bn (BatchNorm  (8, 64, 64, 32)     224         ['conv20_block13_1_conv[0][0]']  
 alization)                                                                                       
                                                                                                  
 conv20_block13_1_actv (Activat  (8, 64, 64, 32)     0           ['conv20_block13_1_bn[0][0]']    
 ion)                                                                                             
                                                                                                  
 conv20_block13_2_conv (Conv2D)  (8, 64, 64, 8)      2304        ['conv20_block13_1_actv[0][0]']  
                                                                                                  
 conv20_block13_2_bn (BatchNorm  (8, 64, 64, 8)      56          ['conv20_block13_2_conv[0][0]']  
 alization)                                                                                       
                                                                                                  
 conv20_block13_2_actv (Activat  (8, 64, 64, 8)      0           ['conv20_block13_2_bn[0][0]']    
 ion)                                                                                             
                                                                                                  
 conv20_block13_drop (Dropout)  (8, 64, 64, 8)       0           ['conv20_block13_2_actv[0][0]']  
                                                                                                  
 conv20_block13_concat (Concate  (8, 64, 64, 152)    0           ['conv20_block12_concat[0][0]',  
 nate)                                                            'conv20_block13_drop[0][0]']    
                                                                                                  
 conv20_block14_1_conv (Conv2D)  (8, 64, 64, 32)     4864        ['conv20_block13_concat[0][0]']  
                                                                                                  
 conv20_block14_1_bn (BatchNorm  (8, 64, 64, 32)     224         ['conv20_block14_1_conv[0][0]']  
 alization)                                                                                       
                                                                                                  
 conv20_block14_1_actv (Activat  (8, 64, 64, 32)     0           ['conv20_block14_1_bn[0][0]']    
 ion)                                                                                             
                                                                                                  
 conv20_block14_2_conv (Conv2D)  (8, 64, 64, 8)      2304        ['conv20_block14_1_actv[0][0]']  
                                                                                                  
 conv20_block14_2_bn (BatchNorm  (8, 64, 64, 8)      56          ['conv20_block14_2_conv[0][0]']  
 alization)                                                                                       
                                                                                                  
 conv20_block14_2_actv (Activat  (8, 64, 64, 8)      0           ['conv20_block14_2_bn[0][0]']    
 ion)                                                                                             
                                                                                                  
 conv20_block14_drop (Dropout)  (8, 64, 64, 8)       0           ['conv20_block14_2_actv[0][0]']  
                                                                                                  
 conv20_block14_concat (Concate  (8, 64, 64, 160)    0           ['conv20_block13_concat[0][0]',  
 nate)                                                            'conv20_block14_drop[0][0]']    
                                                                                                  
 conv20_block15_1_conv (Conv2D)  (8, 64, 64, 32)     5120        ['conv20_block14_concat[0][0]']  
                                                                                                  
 conv20_block15_1_bn (BatchNorm  (8, 64, 64, 32)     224         ['conv20_block15_1_conv[0][0]']  
 alization)                                                                                       
                                                                                                  
 conv20_block15_1_actv (Activat  (8, 64, 64, 32)     0           ['conv20_block15_1_bn[0][0]']    
 ion)                                                                                             
                                                                                                  
 conv20_block15_2_conv (Conv2D)  (8, 64, 64, 8)      2304        ['conv20_block15_1_actv[0][0]']  
                                                                                                  
 conv20_block15_2_bn (BatchNorm  (8, 64, 64, 8)      56          ['conv20_block15_2_conv[0][0]']  
 alization)                                                                                       
                                                                                                  
 conv20_block15_2_actv (Activat  (8, 64, 64, 8)      0           ['conv20_block15_2_bn[0][0]']    
 ion)                                                                                             
                                                                                                  
 conv20_block15_drop (Dropout)  (8, 64, 64, 8)       0           ['conv20_block15_2_actv[0][0]']  
                                                                                                  
 conv20_block15_concat (Concate  (8, 64, 64, 168)    0           ['conv20_block14_concat[0][0]',  
 nate)                                                            'conv20_block15_drop[0][0]']    
                                                                                                  
 conv20_block16_1_conv (Conv2D)  (8, 64, 64, 32)     5376        ['conv20_block15_concat[0][0]']  
                                                                                                  
 conv20_block16_1_bn (BatchNorm  (8, 64, 64, 32)     224         ['conv20_block16_1_conv[0][0]']  
 alization)                                                                                       
                                                                                                  
 conv20_block16_1_actv (Activat  (8, 64, 64, 32)     0           ['conv20_block16_1_bn[0][0]']    
 ion)                                                                                             
                                                                                                  
 conv20_block16_2_conv (Conv2D)  (8, 64, 64, 8)      2304        ['conv20_block16_1_actv[0][0]']  
                                                                                                  
 conv20_block16_2_bn (BatchNorm  (8, 64, 64, 8)      56          ['conv20_block16_2_conv[0][0]']  
 alization)                                                                                       
                                                                                                  
 conv20_block16_2_actv (Activat  (8, 64, 64, 8)      0           ['conv20_block16_2_bn[0][0]']    
 ion)                                                                                             
                                                                                                  
 conv20_block16_drop (Dropout)  (8, 64, 64, 8)       0           ['conv20_block16_2_actv[0][0]']  
                                                                                                  
 conv20_block16_concat (Concate  (8, 64, 64, 176)    0           ['conv20_block15_concat[0][0]',  
 nate)                                                            'conv20_block16_drop[0][0]']    
                                                                                                  
 conv20_block17_1_conv (Conv2D)  (8, 64, 64, 32)     5632        ['conv20_block16_concat[0][0]']  
                                                                                                  
 conv20_block17_1_bn (BatchNorm  (8, 64, 64, 32)     224         ['conv20_block17_1_conv[0][0]']  
 alization)                                                                                       
                                                                                                  
 conv20_block17_1_actv (Activat  (8, 64, 64, 32)     0           ['conv20_block17_1_bn[0][0]']    
 ion)                                                                                             
                                                                                                  
 conv20_block17_2_conv (Conv2D)  (8, 64, 64, 8)      2304        ['conv20_block17_1_actv[0][0]']  
                                                                                                  
 conv20_block17_2_bn (BatchNorm  (8, 64, 64, 8)      56          ['conv20_block17_2_conv[0][0]']  
 alization)                                                                                       
                                                                                                  
 conv20_block17_2_actv (Activat  (8, 64, 64, 8)      0           ['conv20_block17_2_bn[0][0]']    
 ion)                                                                                             
                                                                                                  
 conv20_block17_drop (Dropout)  (8, 64, 64, 8)       0           ['conv20_block17_2_actv[0][0]']  
                                                                                                  
 conv20_block17_concat (Concate  (8, 64, 64, 184)    0           ['conv20_block16_concat[0][0]',  
 nate)                                                            'conv20_block17_drop[0][0]']    
                                                                                                  
 conv20_block18_1_conv (Conv2D)  (8, 64, 64, 32)     5888        ['conv20_block17_concat[0][0]']  
                                                                                                  
 conv20_block18_1_bn (BatchNorm  (8, 64, 64, 32)     224         ['conv20_block18_1_conv[0][0]']  
 alization)                                                                                       
                                                                                                  
 conv20_block18_1_actv (Activat  (8, 64, 64, 32)     0           ['conv20_block18_1_bn[0][0]']    
 ion)                                                                                             
                                                                                                  
 conv20_block18_2_conv (Conv2D)  (8, 64, 64, 8)      2304        ['conv20_block18_1_actv[0][0]']  
                                                                                                  
 conv20_block18_2_bn (BatchNorm  (8, 64, 64, 8)      56          ['conv20_block18_2_conv[0][0]']  
 alization)                                                                                       
                                                                                                  
 conv20_block18_2_actv (Activat  (8, 64, 64, 8)      0           ['conv20_block18_2_bn[0][0]']    
 ion)                                                                                             
                                                                                                  
 conv20_block18_drop (Dropout)  (8, 64, 64, 8)       0           ['conv20_block18_2_actv[0][0]']  
                                                                                                  
 conv20_block18_concat (Concate  (8, 64, 64, 192)    0           ['conv20_block17_concat[0][0]',  
 nate)                                                            'conv20_block18_drop[0][0]']    
                                                                                                  
 conv20_block19_1_conv (Conv2D)  (8, 64, 64, 32)     6144        ['conv20_block18_concat[0][0]']  
                                                                                                  
 conv20_block19_1_bn (BatchNorm  (8, 64, 64, 32)     224         ['conv20_block19_1_conv[0][0]']  
 alization)                                                                                       
                                                                                                  
 conv20_block19_1_actv (Activat  (8, 64, 64, 32)     0           ['conv20_block19_1_bn[0][0]']    
 ion)                                                                                             
                                                                                                  
 conv20_block19_2_conv (Conv2D)  (8, 64, 64, 8)      2304        ['conv20_block19_1_actv[0][0]']  
                                                                                                  
 conv20_block19_2_bn (BatchNorm  (8, 64, 64, 8)      56          ['conv20_block19_2_conv[0][0]']  
 alization)                                                                                       
                                                                                                  
 conv20_block19_2_actv (Activat  (8, 64, 64, 8)      0           ['conv20_block19_2_bn[0][0]']    
 ion)                                                                                             
                                                                                                  
 conv20_block19_drop (Dropout)  (8, 64, 64, 8)       0           ['conv20_block19_2_actv[0][0]']  
                                                                                                  
 conv20_block19_concat (Concate  (8, 64, 64, 200)    0           ['conv20_block18_concat[0][0]',  
 nate)                                                            'conv20_block19_drop[0][0]']    
                                                                                                  
 conv20_block20_1_conv (Conv2D)  (8, 64, 64, 32)     6400        ['conv20_block19_concat[0][0]']  
                                                                                                  
 conv20_block20_1_bn (BatchNorm  (8, 64, 64, 32)     224         ['conv20_block20_1_conv[0][0]']  
 alization)                                                                                       
                                                                                                  
 conv20_block20_1_actv (Activat  (8, 64, 64, 32)     0           ['conv20_block20_1_bn[0][0]']    
 ion)                                                                                             
                                                                                                  
 conv20_block20_2_conv (Conv2D)  (8, 64, 64, 8)      2304        ['conv20_block20_1_actv[0][0]']  
                                                                                                  
 conv20_block20_2_bn (BatchNorm  (8, 64, 64, 8)      56          ['conv20_block20_2_conv[0][0]']  
 alization)                                                                                       
                                                                                                  
 conv20_block20_2_actv (Activat  (8, 64, 64, 8)      0           ['conv20_block20_2_bn[0][0]']    
 ion)                                                                                             
                                                                                                  
 conv20_block20_drop (Dropout)  (8, 64, 64, 8)       0           ['conv20_block20_2_actv[0][0]']  
                                                                                                  
 conv20_block20_concat (Concate  (8, 64, 64, 208)    0           ['conv20_block19_concat[0][0]',  
 nate)                                                            'conv20_block20_drop[0][0]']    
                                                                                                  
 conv20_block21_1_conv (Conv2D)  (8, 64, 64, 32)     6656        ['conv20_block20_concat[0][0]']  
                                                                                                  
 conv20_block21_1_bn (BatchNorm  (8, 64, 64, 32)     224         ['conv20_block21_1_conv[0][0]']  
 alization)                                                                                       
                                                                                                  
 conv20_block21_1_actv (Activat  (8, 64, 64, 32)     0           ['conv20_block21_1_bn[0][0]']    
 ion)                                                                                             
                                                                                                  
 conv20_block21_2_conv (Conv2D)  (8, 64, 64, 8)      2304        ['conv20_block21_1_actv[0][0]']  
                                                                                                  
 conv20_block21_2_bn (BatchNorm  (8, 64, 64, 8)      56          ['conv20_block21_2_conv[0][0]']  
 alization)                                                                                       
                                                                                                  
 conv20_block21_2_actv (Activat  (8, 64, 64, 8)      0           ['conv20_block21_2_bn[0][0]']    
 ion)                                                                                             
                                                                                                  
 conv20_block21_drop (Dropout)  (8, 64, 64, 8)       0           ['conv20_block21_2_actv[0][0]']  
                                                                                                  
 conv20_block21_concat (Concate  (8, 64, 64, 216)    0           ['conv20_block20_concat[0][0]',  
 nate)                                                            'conv20_block21_drop[0][0]']    
                                                                                                  
 conv20_block22_1_conv (Conv2D)  (8, 64, 64, 32)     6912        ['conv20_block21_concat[0][0]']  
                                                                                                  
 conv20_block22_1_bn (BatchNorm  (8, 64, 64, 32)     224         ['conv20_block22_1_conv[0][0]']  
 alization)                                                                                       
                                                                                                  
 conv20_block22_1_actv (Activat  (8, 64, 64, 32)     0           ['conv20_block22_1_bn[0][0]']    
 ion)                                                                                             
                                                                                                  
 conv20_block22_2_conv (Conv2D)  (8, 64, 64, 8)      2304        ['conv20_block22_1_actv[0][0]']  
                                                                                                  
 conv20_block22_2_bn (BatchNorm  (8, 64, 64, 8)      56          ['conv20_block22_2_conv[0][0]']  
 alization)                                                                                       
                                                                                                  
 conv20_block22_2_actv (Activat  (8, 64, 64, 8)      0           ['conv20_block22_2_bn[0][0]']    
 ion)                                                                                             
                                                                                                  
 conv20_block22_drop (Dropout)  (8, 64, 64, 8)       0           ['conv20_block22_2_actv[0][0]']  
                                                                                                  
 conv20_block22_concat (Concate  (8, 64, 64, 224)    0           ['conv20_block21_concat[0][0]',  
 nate)                                                            'conv20_block22_drop[0][0]']    
                                                                                                  
 conv20_block23_1_conv (Conv2D)  (8, 64, 64, 32)     7168        ['conv20_block22_concat[0][0]']  
                                                                                                  
 conv20_block23_1_bn (BatchNorm  (8, 64, 64, 32)     224         ['conv20_block23_1_conv[0][0]']  
 alization)                                                                                       
                                                                                                  
 conv20_block23_1_actv (Activat  (8, 64, 64, 32)     0           ['conv20_block23_1_bn[0][0]']    
 ion)                                                                                             
                                                                                                  
 conv20_block23_2_conv (Conv2D)  (8, 64, 64, 8)      2304        ['conv20_block23_1_actv[0][0]']  
                                                                                                  
 conv20_block23_2_bn (BatchNorm  (8, 64, 64, 8)      56          ['conv20_block23_2_conv[0][0]']  
 alization)                                                                                       
                                                                                                  
 conv20_block23_2_actv (Activat  (8, 64, 64, 8)      0           ['conv20_block23_2_bn[0][0]']    
 ion)                                                                                             
                                                                                                  
 conv20_block23_drop (Dropout)  (8, 64, 64, 8)       0           ['conv20_block23_2_actv[0][0]']  
                                                                                                  
 conv20_block23_concat (Concate  (8, 64, 64, 232)    0           ['conv20_block22_concat[0][0]',  
 nate)                                                            'conv20_block23_drop[0][0]']    
                                                                                                  
 conv20_block24_1_conv (Conv2D)  (8, 64, 64, 32)     7424        ['conv20_block23_concat[0][0]']  
                                                                                                  
 conv20_block24_1_bn (BatchNorm  (8, 64, 64, 32)     224         ['conv20_block24_1_conv[0][0]']  
 alization)                                                                                       
                                                                                                  
 conv20_block24_1_actv (Activat  (8, 64, 64, 32)     0           ['conv20_block24_1_bn[0][0]']    
 ion)                                                                                             
                                                                                                  
 conv20_block24_2_conv (Conv2D)  (8, 64, 64, 8)      2304        ['conv20_block24_1_actv[0][0]']  
                                                                                                  
 conv20_block24_2_bn (BatchNorm  (8, 64, 64, 8)      56          ['conv20_block24_2_conv[0][0]']  
 alization)                                                                                       
                                                                                                  
 conv20_block24_2_actv (Activat  (8, 64, 64, 8)      0           ['conv20_block24_2_bn[0][0]']    
 ion)                                                                                             
                                                                                                  
 conv20_block24_drop (Dropout)  (8, 64, 64, 8)       0           ['conv20_block24_2_actv[0][0]']  
                                                                                                  
 conv20_block24_concat (Concate  (8, 64, 64, 240)    0           ['conv20_block23_concat[0][0]',  
 nate)                                                            'conv20_block24_drop[0][0]']    
                                                                                                  
 conv20_block25_1_conv (Conv2D)  (8, 64, 64, 32)     7680        ['conv20_block24_concat[0][0]']  
                                                                                                  
 conv20_block25_1_bn (BatchNorm  (8, 64, 64, 32)     224         ['conv20_block25_1_conv[0][0]']  
 alization)                                                                                       
                                                                                                  
 conv20_block25_1_actv (Activat  (8, 64, 64, 32)     0           ['conv20_block25_1_bn[0][0]']    
 ion)                                                                                             
                                                                                                  
 conv20_block25_2_conv (Conv2D)  (8, 64, 64, 8)      2304        ['conv20_block25_1_actv[0][0]']  
                                                                                                  
 conv20_block25_2_bn (BatchNorm  (8, 64, 64, 8)      56          ['conv20_block25_2_conv[0][0]']  
 alization)                                                                                       
                                                                                                  
 conv20_block25_2_actv (Activat  (8, 64, 64, 8)      0           ['conv20_block25_2_bn[0][0]']    
 ion)                                                                                             
                                                                                                  
 conv20_block25_drop (Dropout)  (8, 64, 64, 8)       0           ['conv20_block25_2_actv[0][0]']  
                                                                                                  
 conv20_block25_concat (Concate  (8, 64, 64, 248)    0           ['conv20_block24_concat[0][0]',  
 nate)                                                            'conv20_block25_drop[0][0]']    
                                                                                                  
 conv20_block26_1_conv (Conv2D)  (8, 64, 64, 32)     7936        ['conv20_block25_concat[0][0]']  
                                                                                                  
 conv20_block26_1_bn (BatchNorm  (8, 64, 64, 32)     224         ['conv20_block26_1_conv[0][0]']  
 alization)                                                                                       
                                                                                                  
 conv20_block26_1_actv (Activat  (8, 64, 64, 32)     0           ['conv20_block26_1_bn[0][0]']    
 ion)                                                                                             
                                                                                                  
 conv20_block26_2_conv (Conv2D)  (8, 64, 64, 8)      2304        ['conv20_block26_1_actv[0][0]']  
                                                                                                  
 conv20_block26_2_bn (BatchNorm  (8, 64, 64, 8)      56          ['conv20_block26_2_conv[0][0]']  
 alization)                                                                                       
                                                                                                  
 conv20_block26_2_actv (Activat  (8, 64, 64, 8)      0           ['conv20_block26_2_bn[0][0]']    
 ion)                                                                                             
                                                                                                  
 conv20_block26_drop (Dropout)  (8, 64, 64, 8)       0           ['conv20_block26_2_actv[0][0]']  
                                                                                                  
 conv20_block26_concat (Concate  (8, 64, 64, 256)    0           ['conv20_block25_concat[0][0]',  
 nate)                                                            'conv20_block26_drop[0][0]']    
                                                                                                  
 conv20_block27_1_conv (Conv2D)  (8, 64, 64, 32)     8192        ['conv20_block26_concat[0][0]']  
                                                                                                  
 conv20_block27_1_bn (BatchNorm  (8, 64, 64, 32)     224         ['conv20_block27_1_conv[0][0]']  
 alization)                                                                                       
                                                                                                  
 conv20_block27_1_actv (Activat  (8, 64, 64, 32)     0           ['conv20_block27_1_bn[0][0]']    
 ion)                                                                                             
                                                                                                  
 conv20_block27_2_conv (Conv2D)  (8, 64, 64, 8)      2304        ['conv20_block27_1_actv[0][0]']  
                                                                                                  
 conv20_block27_2_bn (BatchNorm  (8, 64, 64, 8)      56          ['conv20_block27_2_conv[0][0]']  
 alization)                                                                                       
                                                                                                  
 conv20_block27_2_actv (Activat  (8, 64, 64, 8)      0           ['conv20_block27_2_bn[0][0]']    
 ion)                                                                                             
                                                                                                  
 conv20_block27_drop (Dropout)  (8, 64, 64, 8)       0           ['conv20_block27_2_actv[0][0]']  
                                                                                                  
 conv20_block27_concat (Concate  (8, 64, 64, 264)    0           ['conv20_block26_concat[0][0]',  
 nate)                                                            'conv20_block27_drop[0][0]']    
                                                                                                  
 conv20_block28_1_conv (Conv2D)  (8, 64, 64, 32)     8448        ['conv20_block27_concat[0][0]']  
                                                                                                  
 conv20_block28_1_bn (BatchNorm  (8, 64, 64, 32)     224         ['conv20_block28_1_conv[0][0]']  
 alization)                                                                                       
                                                                                                  
 conv20_block28_1_actv (Activat  (8, 64, 64, 32)     0           ['conv20_block28_1_bn[0][0]']    
 ion)                                                                                             
                                                                                                  
 conv20_block28_2_conv (Conv2D)  (8, 64, 64, 8)      2304        ['conv20_block28_1_actv[0][0]']  
                                                                                                  
 conv20_block28_2_bn (BatchNorm  (8, 64, 64, 8)      56          ['conv20_block28_2_conv[0][0]']  
 alization)                                                                                       
                                                                                                  
 conv20_block28_2_actv (Activat  (8, 64, 64, 8)      0           ['conv20_block28_2_bn[0][0]']    
 ion)                                                                                             
                                                                                                  
 conv20_block28_drop (Dropout)  (8, 64, 64, 8)       0           ['conv20_block28_2_actv[0][0]']  
                                                                                                  
 conv20_block28_concat (Concate  (8, 64, 64, 272)    0           ['conv20_block27_concat[0][0]',  
 nate)                                                            'conv20_block28_drop[0][0]']    
                                                                                                  
 conv20_block29_1_conv (Conv2D)  (8, 64, 64, 32)     8704        ['conv20_block28_concat[0][0]']  
                                                                                                  
 conv20_block29_1_bn (BatchNorm  (8, 64, 64, 32)     224         ['conv20_block29_1_conv[0][0]']  
 alization)                                                                                       
                                                                                                  
 conv20_block29_1_actv (Activat  (8, 64, 64, 32)     0           ['conv20_block29_1_bn[0][0]']    
 ion)                                                                                             
                                                                                                  
 conv20_block29_2_conv (Conv2D)  (8, 64, 64, 8)      2304        ['conv20_block29_1_actv[0][0]']  
                                                                                                  
 conv20_block29_2_bn (BatchNorm  (8, 64, 64, 8)      56          ['conv20_block29_2_conv[0][0]']  
 alization)                                                                                       
                                                                                                  
 conv20_block29_2_actv (Activat  (8, 64, 64, 8)      0           ['conv20_block29_2_bn[0][0]']    
 ion)                                                                                             
                                                                                                  
 conv20_block29_drop (Dropout)  (8, 64, 64, 8)       0           ['conv20_block29_2_actv[0][0]']  
                                                                                                  
 conv20_block29_concat (Concate  (8, 64, 64, 280)    0           ['conv20_block28_concat[0][0]',  
 nate)                                                            'conv20_block29_drop[0][0]']    
                                                                                                  
 conv20_block30_1_conv (Conv2D)  (8, 64, 64, 32)     8960        ['conv20_block29_concat[0][0]']  
                                                                                                  
 conv20_block30_1_bn (BatchNorm  (8, 64, 64, 32)     224         ['conv20_block30_1_conv[0][0]']  
 alization)                                                                                       
                                                                                                  
 conv20_block30_1_actv (Activat  (8, 64, 64, 32)     0           ['conv20_block30_1_bn[0][0]']    
 ion)                                                                                             
                                                                                                  
 conv20_block30_2_conv (Conv2D)  (8, 64, 64, 8)      2304        ['conv20_block30_1_actv[0][0]']  
                                                                                                  
 conv20_block30_2_bn (BatchNorm  (8, 64, 64, 8)      56          ['conv20_block30_2_conv[0][0]']  
 alization)                                                                                       
                                                                                                  
 conv20_block30_2_actv (Activat  (8, 64, 64, 8)      0           ['conv20_block30_2_bn[0][0]']    
 ion)                                                                                             
                                                                                                  
 conv20_block30_drop (Dropout)  (8, 64, 64, 8)       0           ['conv20_block30_2_actv[0][0]']  
                                                                                                  
 conv20_block30_concat (Concate  (8, 64, 64, 288)    0           ['conv20_block29_concat[0][0]',  
 nate)                                                            'conv20_block30_drop[0][0]']    
                                                                                                  
 conv20_block31_1_conv (Conv2D)  (8, 64, 64, 32)     9216        ['conv20_block30_concat[0][0]']  
                                                                                                  
 conv20_block31_1_bn (BatchNorm  (8, 64, 64, 32)     224         ['conv20_block31_1_conv[0][0]']  
 alization)                                                                                       
                                                                                                  
 conv20_block31_1_actv (Activat  (8, 64, 64, 32)     0           ['conv20_block31_1_bn[0][0]']    
 ion)                                                                                             
                                                                                                  
 conv20_block31_2_conv (Conv2D)  (8, 64, 64, 8)      2304        ['conv20_block31_1_actv[0][0]']  
                                                                                                  
 conv20_block31_2_bn (BatchNorm  (8, 64, 64, 8)      56          ['conv20_block31_2_conv[0][0]']  
 alization)                                                                                       
                                                                                                  
 conv20_block31_2_actv (Activat  (8, 64, 64, 8)      0           ['conv20_block31_2_bn[0][0]']    
 ion)                                                                                             
                                                                                                  
 conv20_block31_drop (Dropout)  (8, 64, 64, 8)       0           ['conv20_block31_2_actv[0][0]']  
                                                                                                  
 conv20_block31_concat (Concate  (8, 64, 64, 296)    0           ['conv20_block30_concat[0][0]',  
 nate)                                                            'conv20_block31_drop[0][0]']    
                                                                                                  
 conv20_block32_1_conv (Conv2D)  (8, 64, 64, 32)     9472        ['conv20_block31_concat[0][0]']  
                                                                                                  
 conv20_block32_1_bn (BatchNorm  (8, 64, 64, 32)     224         ['conv20_block32_1_conv[0][0]']  
 alization)                                                                                       
                                                                                                  
 conv20_block32_1_actv (Activat  (8, 64, 64, 32)     0           ['conv20_block32_1_bn[0][0]']    
 ion)                                                                                             
                                                                                                  
 conv20_block32_2_conv (Conv2D)  (8, 64, 64, 8)      2304        ['conv20_block32_1_actv[0][0]']  
                                                                                                  
 conv20_block32_2_bn (BatchNorm  (8, 64, 64, 8)      56          ['conv20_block32_2_conv[0][0]']  
 alization)                                                                                       
                                                                                                  
 conv20_block32_2_actv (Activat  (8, 64, 64, 8)      0           ['conv20_block32_2_bn[0][0]']    
 ion)                                                                                             
                                                                                                  
 conv20_block32_drop (Dropout)  (8, 64, 64, 8)       0           ['conv20_block32_2_actv[0][0]']  
                                                                                                  
 conv20_block32_concat (Concate  (8, 64, 64, 304)    0           ['conv20_block31_concat[0][0]',  
 nate)                                                            'conv20_block32_drop[0][0]']    
                                                                                                  
 down20_conv (Conv2D)           (8, 32, 32, 128)     155648      ['conv20_block32_concat[0][0]']  
                                                                                                  
 down20_bn (BatchNormalization)  (8, 32, 32, 128)    896         ['down20_conv[0][0]']            
                                                                                                  
 down20_actv (Activation)       (8, 32, 32, 128)     0           ['down20_bn[0][0]']              
                                                                                                  
 conv30_block1_1_conv (Conv2D)  (8, 32, 32, 32)      4096        ['down20_actv[0][0]']            
                                                                                                  
 conv30_block1_1_bn (BatchNorma  (8, 32, 32, 32)     224         ['conv30_block1_1_conv[0][0]']   
 lization)                                                                                        
                                                                                                  
 conv30_block1_1_actv (Activati  (8, 32, 32, 32)     0           ['conv30_block1_1_bn[0][0]']     
 on)                                                                                              
                                                                                                  
 conv30_block1_2_conv (Conv2D)  (8, 32, 32, 8)       2304        ['conv30_block1_1_actv[0][0]']   
                                                                                                  
 conv30_block1_2_bn (BatchNorma  (8, 32, 32, 8)      56          ['conv30_block1_2_conv[0][0]']   
 lization)                                                                                        
                                                                                                  
 conv30_block1_2_actv (Activati  (8, 32, 32, 8)      0           ['conv30_block1_2_bn[0][0]']     
 on)                                                                                              
                                                                                                  
 conv30_block1_drop (Dropout)   (8, 32, 32, 8)       0           ['conv30_block1_2_actv[0][0]']   
                                                                                                  
 conv30_block1_concat (Concaten  (8, 32, 32, 136)    0           ['down20_actv[0][0]',            
 ate)                                                             'conv30_block1_drop[0][0]']     
                                                                                                  
 conv30_block2_1_conv (Conv2D)  (8, 32, 32, 32)      4352        ['conv30_block1_concat[0][0]']   
                                                                                                  
 conv30_block2_1_bn (BatchNorma  (8, 32, 32, 32)     224         ['conv30_block2_1_conv[0][0]']   
 lization)                                                                                        
                                                                                                  
 conv30_block2_1_actv (Activati  (8, 32, 32, 32)     0           ['conv30_block2_1_bn[0][0]']     
 on)                                                                                              
                                                                                                  
 conv30_block2_2_conv (Conv2D)  (8, 32, 32, 8)       2304        ['conv30_block2_1_actv[0][0]']   
                                                                                                  
 conv30_block2_2_bn (BatchNorma  (8, 32, 32, 8)      56          ['conv30_block2_2_conv[0][0]']   
 lization)                                                                                        
                                                                                                  
 conv30_block2_2_actv (Activati  (8, 32, 32, 8)      0           ['conv30_block2_2_bn[0][0]']     
 on)                                                                                              
                                                                                                  
 conv30_block2_drop (Dropout)   (8, 32, 32, 8)       0           ['conv30_block2_2_actv[0][0]']   
                                                                                                  
 conv30_block2_concat (Concaten  (8, 32, 32, 144)    0           ['conv30_block1_concat[0][0]',   
 ate)                                                             'conv30_block2_drop[0][0]']     
                                                                                                  
 conv30_block3_1_conv (Conv2D)  (8, 32, 32, 32)      4608        ['conv30_block2_concat[0][0]']   
                                                                                                  
 conv30_block3_1_bn (BatchNorma  (8, 32, 32, 32)     224         ['conv30_block3_1_conv[0][0]']   
 lization)                                                                                        
                                                                                                  
 conv30_block3_1_actv (Activati  (8, 32, 32, 32)     0           ['conv30_block3_1_bn[0][0]']     
 on)                                                                                              
                                                                                                  
 conv30_block3_2_conv (Conv2D)  (8, 32, 32, 8)       2304        ['conv30_block3_1_actv[0][0]']   
                                                                                                  
 conv30_block3_2_bn (BatchNorma  (8, 32, 32, 8)      56          ['conv30_block3_2_conv[0][0]']   
 lization)                                                                                        
                                                                                                  
 conv30_block3_2_actv (Activati  (8, 32, 32, 8)      0           ['conv30_block3_2_bn[0][0]']     
 on)                                                                                              
                                                                                                  
 conv30_block3_drop (Dropout)   (8, 32, 32, 8)       0           ['conv30_block3_2_actv[0][0]']   
                                                                                                  
 conv30_block3_concat (Concaten  (8, 32, 32, 152)    0           ['conv30_block2_concat[0][0]',   
 ate)                                                             'conv30_block3_drop[0][0]']     
                                                                                                  
 conv30_block4_1_conv (Conv2D)  (8, 32, 32, 32)      4864        ['conv30_block3_concat[0][0]']   
                                                                                                  
 conv30_block4_1_bn (BatchNorma  (8, 32, 32, 32)     224         ['conv30_block4_1_conv[0][0]']   
 lization)                                                                                        
                                                                                                  
 conv30_block4_1_actv (Activati  (8, 32, 32, 32)     0           ['conv30_block4_1_bn[0][0]']     
 on)                                                                                              
                                                                                                  
 conv30_block4_2_conv (Conv2D)  (8, 32, 32, 8)       2304        ['conv30_block4_1_actv[0][0]']   
                                                                                                  
 conv30_block4_2_bn (BatchNorma  (8, 32, 32, 8)      56          ['conv30_block4_2_conv[0][0]']   
 lization)                                                                                        
                                                                                                  
 conv30_block4_2_actv (Activati  (8, 32, 32, 8)      0           ['conv30_block4_2_bn[0][0]']     
 on)                                                                                              
                                                                                                  
 conv30_block4_drop (Dropout)   (8, 32, 32, 8)       0           ['conv30_block4_2_actv[0][0]']   
                                                                                                  
 conv30_block4_concat (Concaten  (8, 32, 32, 160)    0           ['conv30_block3_concat[0][0]',   
 ate)                                                             'conv30_block4_drop[0][0]']     
                                                                                                  
 conv30_block5_1_conv (Conv2D)  (8, 32, 32, 32)      5120        ['conv30_block4_concat[0][0]']   
                                                                                                  
 conv30_block5_1_bn (BatchNorma  (8, 32, 32, 32)     224         ['conv30_block5_1_conv[0][0]']   
 lization)                                                                                        
                                                                                                  
 conv30_block5_1_actv (Activati  (8, 32, 32, 32)     0           ['conv30_block5_1_bn[0][0]']     
 on)                                                                                              
                                                                                                  
 conv30_block5_2_conv (Conv2D)  (8, 32, 32, 8)       2304        ['conv30_block5_1_actv[0][0]']   
                                                                                                  
 conv30_block5_2_bn (BatchNorma  (8, 32, 32, 8)      56          ['conv30_block5_2_conv[0][0]']   
 lization)                                                                                        
                                                                                                  
 conv30_block5_2_actv (Activati  (8, 32, 32, 8)      0           ['conv30_block5_2_bn[0][0]']     
 on)                                                                                              
                                                                                                  
 conv30_block5_drop (Dropout)   (8, 32, 32, 8)       0           ['conv30_block5_2_actv[0][0]']   
                                                                                                  
 conv30_block5_concat (Concaten  (8, 32, 32, 168)    0           ['conv30_block4_concat[0][0]',   
 ate)                                                             'conv30_block5_drop[0][0]']     
                                                                                                  
 conv30_block6_1_conv (Conv2D)  (8, 32, 32, 32)      5376        ['conv30_block5_concat[0][0]']   
                                                                                                  
 conv30_block6_1_bn (BatchNorma  (8, 32, 32, 32)     224         ['conv30_block6_1_conv[0][0]']   
 lization)                                                                                        
                                                                                                  
 conv30_block6_1_actv (Activati  (8, 32, 32, 32)     0           ['conv30_block6_1_bn[0][0]']     
 on)                                                                                              
                                                                                                  
 conv30_block6_2_conv (Conv2D)  (8, 32, 32, 8)       2304        ['conv30_block6_1_actv[0][0]']   
                                                                                                  
 conv30_block6_2_bn (BatchNorma  (8, 32, 32, 8)      56          ['conv30_block6_2_conv[0][0]']   
 lization)                                                                                        
                                                                                                  
 conv30_block6_2_actv (Activati  (8, 32, 32, 8)      0           ['conv30_block6_2_bn[0][0]']     
 on)                                                                                              
                                                                                                  
 conv30_block6_drop (Dropout)   (8, 32, 32, 8)       0           ['conv30_block6_2_actv[0][0]']   
                                                                                                  
 conv30_block6_concat (Concaten  (8, 32, 32, 176)    0           ['conv30_block5_concat[0][0]',   
 ate)                                                             'conv30_block6_drop[0][0]']     
                                                                                                  
 conv30_block7_1_conv (Conv2D)  (8, 32, 32, 32)      5632        ['conv30_block6_concat[0][0]']   
                                                                                                  
 conv30_block7_1_bn (BatchNorma  (8, 32, 32, 32)     224         ['conv30_block7_1_conv[0][0]']   
 lization)                                                                                        
                                                                                                  
 conv30_block7_1_actv (Activati  (8, 32, 32, 32)     0           ['conv30_block7_1_bn[0][0]']     
 on)                                                                                              
                                                                                                  
 conv30_block7_2_conv (Conv2D)  (8, 32, 32, 8)       2304        ['conv30_block7_1_actv[0][0]']   
                                                                                                  
 conv30_block7_2_bn (BatchNorma  (8, 32, 32, 8)      56          ['conv30_block7_2_conv[0][0]']   
 lization)                                                                                        
                                                                                                  
 conv30_block7_2_actv (Activati  (8, 32, 32, 8)      0           ['conv30_block7_2_bn[0][0]']     
 on)                                                                                              
                                                                                                  
 conv30_block7_drop (Dropout)   (8, 32, 32, 8)       0           ['conv30_block7_2_actv[0][0]']   
                                                                                                  
 conv30_block7_concat (Concaten  (8, 32, 32, 184)    0           ['conv30_block6_concat[0][0]',   
 ate)                                                             'conv30_block7_drop[0][0]']     
                                                                                                  
 conv30_block8_1_conv (Conv2D)  (8, 32, 32, 32)      5888        ['conv30_block7_concat[0][0]']   
                                                                                                  
 conv30_block8_1_bn (BatchNorma  (8, 32, 32, 32)     224         ['conv30_block8_1_conv[0][0]']   
 lization)                                                                                        
                                                                                                  
 conv30_block8_1_actv (Activati  (8, 32, 32, 32)     0           ['conv30_block8_1_bn[0][0]']     
 on)                                                                                              
                                                                                                  
 conv30_block8_2_conv (Conv2D)  (8, 32, 32, 8)       2304        ['conv30_block8_1_actv[0][0]']   
                                                                                                  
 conv30_block8_2_bn (BatchNorma  (8, 32, 32, 8)      56          ['conv30_block8_2_conv[0][0]']   
 lization)                                                                                        
                                                                                                  
 conv30_block8_2_actv (Activati  (8, 32, 32, 8)      0           ['conv30_block8_2_bn[0][0]']     
 on)                                                                                              
                                                                                                  
 conv30_block8_drop (Dropout)   (8, 32, 32, 8)       0           ['conv30_block8_2_actv[0][0]']   
                                                                                                  
 conv30_block8_concat (Concaten  (8, 32, 32, 192)    0           ['conv30_block7_concat[0][0]',   
 ate)                                                             'conv30_block8_drop[0][0]']     
                                                                                                  
 conv30_block9_1_conv (Conv2D)  (8, 32, 32, 32)      6144        ['conv30_block8_concat[0][0]']   
                                                                                                  
 conv30_block9_1_bn (BatchNorma  (8, 32, 32, 32)     224         ['conv30_block9_1_conv[0][0]']   
 lization)                                                                                        
                                                                                                  
 conv30_block9_1_actv (Activati  (8, 32, 32, 32)     0           ['conv30_block9_1_bn[0][0]']     
 on)                                                                                              
                                                                                                  
 conv30_block9_2_conv (Conv2D)  (8, 32, 32, 8)       2304        ['conv30_block9_1_actv[0][0]']   
                                                                                                  
 conv30_block9_2_bn (BatchNorma  (8, 32, 32, 8)      56          ['conv30_block9_2_conv[0][0]']   
 lization)                                                                                        
                                                                                                  
 conv30_block9_2_actv (Activati  (8, 32, 32, 8)      0           ['conv30_block9_2_bn[0][0]']     
 on)                                                                                              
                                                                                                  
 conv30_block9_drop (Dropout)   (8, 32, 32, 8)       0           ['conv30_block9_2_actv[0][0]']   
                                                                                                  
 conv30_block9_concat (Concaten  (8, 32, 32, 200)    0           ['conv30_block8_concat[0][0]',   
 ate)                                                             'conv30_block9_drop[0][0]']     
                                                                                                  
 conv30_block10_1_conv (Conv2D)  (8, 32, 32, 32)     6400        ['conv30_block9_concat[0][0]']   
                                                                                                  
 conv30_block10_1_bn (BatchNorm  (8, 32, 32, 32)     224         ['conv30_block10_1_conv[0][0]']  
 alization)                                                                                       
                                                                                                  
 conv30_block10_1_actv (Activat  (8, 32, 32, 32)     0           ['conv30_block10_1_bn[0][0]']    
 ion)                                                                                             
                                                                                                  
 conv30_block10_2_conv (Conv2D)  (8, 32, 32, 8)      2304        ['conv30_block10_1_actv[0][0]']  
                                                                                                  
 conv30_block10_2_bn (BatchNorm  (8, 32, 32, 8)      56          ['conv30_block10_2_conv[0][0]']  
 alization)                                                                                       
                                                                                                  
 conv30_block10_2_actv (Activat  (8, 32, 32, 8)      0           ['conv30_block10_2_bn[0][0]']    
 ion)                                                                                             
                                                                                                  
 conv30_block10_drop (Dropout)  (8, 32, 32, 8)       0           ['conv30_block10_2_actv[0][0]']  
                                                                                                  
 conv30_block10_concat (Concate  (8, 32, 32, 208)    0           ['conv30_block9_concat[0][0]',   
 nate)                                                            'conv30_block10_drop[0][0]']    
                                                                                                  
 conv30_block11_1_conv (Conv2D)  (8, 32, 32, 32)     6656        ['conv30_block10_concat[0][0]']  
                                                                                                  
 conv30_block11_1_bn (BatchNorm  (8, 32, 32, 32)     224         ['conv30_block11_1_conv[0][0]']  
 alization)                                                                                       
                                                                                                  
 conv30_block11_1_actv (Activat  (8, 32, 32, 32)     0           ['conv30_block11_1_bn[0][0]']    
 ion)                                                                                             
                                                                                                  
 conv30_block11_2_conv (Conv2D)  (8, 32, 32, 8)      2304        ['conv30_block11_1_actv[0][0]']  
                                                                                                  
 conv30_block11_2_bn (BatchNorm  (8, 32, 32, 8)      56          ['conv30_block11_2_conv[0][0]']  
 alization)                                                                                       
                                                                                                  
 conv30_block11_2_actv (Activat  (8, 32, 32, 8)      0           ['conv30_block11_2_bn[0][0]']    
 ion)                                                                                             
                                                                                                  
 conv30_block11_drop (Dropout)  (8, 32, 32, 8)       0           ['conv30_block11_2_actv[0][0]']  
                                                                                                  
 conv30_block11_concat (Concate  (8, 32, 32, 216)    0           ['conv30_block10_concat[0][0]',  
 nate)                                                            'conv30_block11_drop[0][0]']    
                                                                                                  
 conv30_block12_1_conv (Conv2D)  (8, 32, 32, 32)     6912        ['conv30_block11_concat[0][0]']  
                                                                                                  
 conv30_block12_1_bn (BatchNorm  (8, 32, 32, 32)     224         ['conv30_block12_1_conv[0][0]']  
 alization)                                                                                       
                                                                                                  
 conv30_block12_1_actv (Activat  (8, 32, 32, 32)     0           ['conv30_block12_1_bn[0][0]']    
 ion)                                                                                             
                                                                                                  
 conv30_block12_2_conv (Conv2D)  (8, 32, 32, 8)      2304        ['conv30_block12_1_actv[0][0]']  
                                                                                                  
 conv30_block12_2_bn (BatchNorm  (8, 32, 32, 8)      56          ['conv30_block12_2_conv[0][0]']  
 alization)                                                                                       
                                                                                                  
 conv30_block12_2_actv (Activat  (8, 32, 32, 8)      0           ['conv30_block12_2_bn[0][0]']    
 ion)                                                                                             
                                                                                                  
 conv30_block12_drop (Dropout)  (8, 32, 32, 8)       0           ['conv30_block12_2_actv[0][0]']  
                                                                                                  
 conv30_block12_concat (Concate  (8, 32, 32, 224)    0           ['conv30_block11_concat[0][0]',  
 nate)                                                            'conv30_block12_drop[0][0]']    
                                                                                                  
 conv30_block13_1_conv (Conv2D)  (8, 32, 32, 32)     7168        ['conv30_block12_concat[0][0]']  
                                                                                                  
 conv30_block13_1_bn (BatchNorm  (8, 32, 32, 32)     224         ['conv30_block13_1_conv[0][0]']  
 alization)                                                                                       
                                                                                                  
 conv30_block13_1_actv (Activat  (8, 32, 32, 32)     0           ['conv30_block13_1_bn[0][0]']    
 ion)                                                                                             
                                                                                                  
 conv30_block13_2_conv (Conv2D)  (8, 32, 32, 8)      2304        ['conv30_block13_1_actv[0][0]']  
                                                                                                  
 conv30_block13_2_bn (BatchNorm  (8, 32, 32, 8)      56          ['conv30_block13_2_conv[0][0]']  
 alization)                                                                                       
                                                                                                  
 conv30_block13_2_actv (Activat  (8, 32, 32, 8)      0           ['conv30_block13_2_bn[0][0]']    
 ion)                                                                                             
                                                                                                  
 conv30_block13_drop (Dropout)  (8, 32, 32, 8)       0           ['conv30_block13_2_actv[0][0]']  
                                                                                                  
 conv30_block13_concat (Concate  (8, 32, 32, 232)    0           ['conv30_block12_concat[0][0]',  
 nate)                                                            'conv30_block13_drop[0][0]']    
                                                                                                  
 conv30_block14_1_conv (Conv2D)  (8, 32, 32, 32)     7424        ['conv30_block13_concat[0][0]']  
                                                                                                  
 conv30_block14_1_bn (BatchNorm  (8, 32, 32, 32)     224         ['conv30_block14_1_conv[0][0]']  
 alization)                                                                                       
                                                                                                  
 conv30_block14_1_actv (Activat  (8, 32, 32, 32)     0           ['conv30_block14_1_bn[0][0]']    
 ion)                                                                                             
                                                                                                  
 conv30_block14_2_conv (Conv2D)  (8, 32, 32, 8)      2304        ['conv30_block14_1_actv[0][0]']  
                                                                                                  
 conv30_block14_2_bn (BatchNorm  (8, 32, 32, 8)      56          ['conv30_block14_2_conv[0][0]']  
 alization)                                                                                       
                                                                                                  
 conv30_block14_2_actv (Activat  (8, 32, 32, 8)      0           ['conv30_block14_2_bn[0][0]']    
 ion)                                                                                             
                                                                                                  
 conv30_block14_drop (Dropout)  (8, 32, 32, 8)       0           ['conv30_block14_2_actv[0][0]']  
                                                                                                  
 conv30_block14_concat (Concate  (8, 32, 32, 240)    0           ['conv30_block13_concat[0][0]',  
 nate)                                                            'conv30_block14_drop[0][0]']    
                                                                                                  
 conv30_block15_1_conv (Conv2D)  (8, 32, 32, 32)     7680        ['conv30_block14_concat[0][0]']  
                                                                                                  
 conv30_block15_1_bn (BatchNorm  (8, 32, 32, 32)     224         ['conv30_block15_1_conv[0][0]']  
 alization)                                                                                       
                                                                                                  
 conv30_block15_1_actv (Activat  (8, 32, 32, 32)     0           ['conv30_block15_1_bn[0][0]']    
 ion)                                                                                             
                                                                                                  
 conv30_block15_2_conv (Conv2D)  (8, 32, 32, 8)      2304        ['conv30_block15_1_actv[0][0]']  
                                                                                                  
 conv30_block15_2_bn (BatchNorm  (8, 32, 32, 8)      56          ['conv30_block15_2_conv[0][0]']  
 alization)                                                                                       
                                                                                                  
 conv30_block15_2_actv (Activat  (8, 32, 32, 8)      0           ['conv30_block15_2_bn[0][0]']    
 ion)                                                                                             
                                                                                                  
 conv30_block15_drop (Dropout)  (8, 32, 32, 8)       0           ['conv30_block15_2_actv[0][0]']  
                                                                                                  
 conv30_block15_concat (Concate  (8, 32, 32, 248)    0           ['conv30_block14_concat[0][0]',  
 nate)                                                            'conv30_block15_drop[0][0]']    
                                                                                                  
 conv30_block16_1_conv (Conv2D)  (8, 32, 32, 32)     7936        ['conv30_block15_concat[0][0]']  
                                                                                                  
 conv30_block16_1_bn (BatchNorm  (8, 32, 32, 32)     224         ['conv30_block16_1_conv[0][0]']  
 alization)                                                                                       
                                                                                                  
 conv30_block16_1_actv (Activat  (8, 32, 32, 32)     0           ['conv30_block16_1_bn[0][0]']    
 ion)                                                                                             
                                                                                                  
 conv30_block16_2_conv (Conv2D)  (8, 32, 32, 8)      2304        ['conv30_block16_1_actv[0][0]']  
                                                                                                  
 conv30_block16_2_bn (BatchNorm  (8, 32, 32, 8)      56          ['conv30_block16_2_conv[0][0]']  
 alization)                                                                                       
                                                                                                  
 conv30_block16_2_actv (Activat  (8, 32, 32, 8)      0           ['conv30_block16_2_bn[0][0]']    
 ion)                                                                                             
                                                                                                  
 conv30_block16_drop (Dropout)  (8, 32, 32, 8)       0           ['conv30_block16_2_actv[0][0]']  
                                                                                                  
 conv30_block16_concat (Concate  (8, 32, 32, 256)    0           ['conv30_block15_concat[0][0]',  
 nate)                                                            'conv30_block16_drop[0][0]']    
                                                                                                  
 conv30_block17_1_conv (Conv2D)  (8, 32, 32, 32)     8192        ['conv30_block16_concat[0][0]']  
                                                                                                  
 conv30_block17_1_bn (BatchNorm  (8, 32, 32, 32)     224         ['conv30_block17_1_conv[0][0]']  
 alization)                                                                                       
                                                                                                  
 conv30_block17_1_actv (Activat  (8, 32, 32, 32)     0           ['conv30_block17_1_bn[0][0]']    
 ion)                                                                                             
                                                                                                  
 conv30_block17_2_conv (Conv2D)  (8, 32, 32, 8)      2304        ['conv30_block17_1_actv[0][0]']  
                                                                                                  
 conv30_block17_2_bn (BatchNorm  (8, 32, 32, 8)      56          ['conv30_block17_2_conv[0][0]']  
 alization)                                                                                       
                                                                                                  
 conv30_block17_2_actv (Activat  (8, 32, 32, 8)      0           ['conv30_block17_2_bn[0][0]']    
 ion)                                                                                             
                                                                                                  
 conv30_block17_drop (Dropout)  (8, 32, 32, 8)       0           ['conv30_block17_2_actv[0][0]']  
                                                                                                  
 conv30_block17_concat (Concate  (8, 32, 32, 264)    0           ['conv30_block16_concat[0][0]',  
 nate)                                                            'conv30_block17_drop[0][0]']    
                                                                                                  
 conv30_block18_1_conv (Conv2D)  (8, 32, 32, 32)     8448        ['conv30_block17_concat[0][0]']  
                                                                                                  
 conv30_block18_1_bn (BatchNorm  (8, 32, 32, 32)     224         ['conv30_block18_1_conv[0][0]']  
 alization)                                                                                       
                                                                                                  
 conv30_block18_1_actv (Activat  (8, 32, 32, 32)     0           ['conv30_block18_1_bn[0][0]']    
 ion)                                                                                             
                                                                                                  
 conv30_block18_2_conv (Conv2D)  (8, 32, 32, 8)      2304        ['conv30_block18_1_actv[0][0]']  
                                                                                                  
 conv30_block18_2_bn (BatchNorm  (8, 32, 32, 8)      56          ['conv30_block18_2_conv[0][0]']  
 alization)                                                                                       
                                                                                                  
 conv30_block18_2_actv (Activat  (8, 32, 32, 8)      0           ['conv30_block18_2_bn[0][0]']    
 ion)                                                                                             
                                                                                                  
 conv30_block18_drop (Dropout)  (8, 32, 32, 8)       0           ['conv30_block18_2_actv[0][0]']  
                                                                                                  
 conv30_block18_concat (Concate  (8, 32, 32, 272)    0           ['conv30_block17_concat[0][0]',  
 nate)                                                            'conv30_block18_drop[0][0]']    
                                                                                                  
 conv30_block19_1_conv (Conv2D)  (8, 32, 32, 32)     8704        ['conv30_block18_concat[0][0]']  
                                                                                                  
 conv30_block19_1_bn (BatchNorm  (8, 32, 32, 32)     224         ['conv30_block19_1_conv[0][0]']  
 alization)                                                                                       
                                                                                                  
 conv30_block19_1_actv (Activat  (8, 32, 32, 32)     0           ['conv30_block19_1_bn[0][0]']    
 ion)                                                                                             
                                                                                                  
 conv30_block19_2_conv (Conv2D)  (8, 32, 32, 8)      2304        ['conv30_block19_1_actv[0][0]']  
                                                                                                  
 conv30_block19_2_bn (BatchNorm  (8, 32, 32, 8)      56          ['conv30_block19_2_conv[0][0]']  
 alization)                                                                                       
                                                                                                  
 conv30_block19_2_actv (Activat  (8, 32, 32, 8)      0           ['conv30_block19_2_bn[0][0]']    
 ion)                                                                                             
                                                                                                  
 conv30_block19_drop (Dropout)  (8, 32, 32, 8)       0           ['conv30_block19_2_actv[0][0]']  
                                                                                                  
 conv30_block19_concat (Concate  (8, 32, 32, 280)    0           ['conv30_block18_concat[0][0]',  
 nate)                                                            'conv30_block19_drop[0][0]']    
                                                                                                  
 conv30_block20_1_conv (Conv2D)  (8, 32, 32, 32)     8960        ['conv30_block19_concat[0][0]']  
                                                                                                  
 conv30_block20_1_bn (BatchNorm  (8, 32, 32, 32)     224         ['conv30_block20_1_conv[0][0]']  
 alization)                                                                                       
                                                                                                  
 conv30_block20_1_actv (Activat  (8, 32, 32, 32)     0           ['conv30_block20_1_bn[0][0]']    
 ion)                                                                                             
                                                                                                  
 conv30_block20_2_conv (Conv2D)  (8, 32, 32, 8)      2304        ['conv30_block20_1_actv[0][0]']  
                                                                                                  
 conv30_block20_2_bn (BatchNorm  (8, 32, 32, 8)      56          ['conv30_block20_2_conv[0][0]']  
 alization)                                                                                       
                                                                                                  
 conv30_block20_2_actv (Activat  (8, 32, 32, 8)      0           ['conv30_block20_2_bn[0][0]']    
 ion)                                                                                             
                                                                                                  
 conv30_block20_drop (Dropout)  (8, 32, 32, 8)       0           ['conv30_block20_2_actv[0][0]']  
                                                                                                  
 conv30_block20_concat (Concate  (8, 32, 32, 288)    0           ['conv30_block19_concat[0][0]',  
 nate)                                                            'conv30_block20_drop[0][0]']    
                                                                                                  
 conv30_block21_1_conv (Conv2D)  (8, 32, 32, 32)     9216        ['conv30_block20_concat[0][0]']  
                                                                                                  
 conv30_block21_1_bn (BatchNorm  (8, 32, 32, 32)     224         ['conv30_block21_1_conv[0][0]']  
 alization)                                                                                       
                                                                                                  
 conv30_block21_1_actv (Activat  (8, 32, 32, 32)     0           ['conv30_block21_1_bn[0][0]']    
 ion)                                                                                             
                                                                                                  
 conv30_block21_2_conv (Conv2D)  (8, 32, 32, 8)      2304        ['conv30_block21_1_actv[0][0]']  
                                                                                                  
 conv30_block21_2_bn (BatchNorm  (8, 32, 32, 8)      56          ['conv30_block21_2_conv[0][0]']  
 alization)                                                                                       
                                                                                                  
 conv30_block21_2_actv (Activat  (8, 32, 32, 8)      0           ['conv30_block21_2_bn[0][0]']    
 ion)                                                                                             
                                                                                                  
 conv30_block21_drop (Dropout)  (8, 32, 32, 8)       0           ['conv30_block21_2_actv[0][0]']  
                                                                                                  
 conv30_block21_concat (Concate  (8, 32, 32, 296)    0           ['conv30_block20_concat[0][0]',  
 nate)                                                            'conv30_block21_drop[0][0]']    
                                                                                                  
 conv30_block22_1_conv (Conv2D)  (8, 32, 32, 32)     9472        ['conv30_block21_concat[0][0]']  
                                                                                                  
 conv30_block22_1_bn (BatchNorm  (8, 32, 32, 32)     224         ['conv30_block22_1_conv[0][0]']  
 alization)                                                                                       
                                                                                                  
 conv30_block22_1_actv (Activat  (8, 32, 32, 32)     0           ['conv30_block22_1_bn[0][0]']    
 ion)                                                                                             
                                                                                                  
 conv30_block22_2_conv (Conv2D)  (8, 32, 32, 8)      2304        ['conv30_block22_1_actv[0][0]']  
                                                                                                  
 conv30_block22_2_bn (BatchNorm  (8, 32, 32, 8)      56          ['conv30_block22_2_conv[0][0]']  
 alization)                                                                                       
                                                                                                  
 conv30_block22_2_actv (Activat  (8, 32, 32, 8)      0           ['conv30_block22_2_bn[0][0]']    
 ion)                                                                                             
                                                                                                  
 conv30_block22_drop (Dropout)  (8, 32, 32, 8)       0           ['conv30_block22_2_actv[0][0]']  
                                                                                                  
 conv30_block22_concat (Concate  (8, 32, 32, 304)    0           ['conv30_block21_concat[0][0]',  
 nate)                                                            'conv30_block22_drop[0][0]']    
                                                                                                  
 conv30_block23_1_conv (Conv2D)  (8, 32, 32, 32)     9728        ['conv30_block22_concat[0][0]']  
                                                                                                  
 conv30_block23_1_bn (BatchNorm  (8, 32, 32, 32)     224         ['conv30_block23_1_conv[0][0]']  
 alization)                                                                                       
                                                                                                  
 conv30_block23_1_actv (Activat  (8, 32, 32, 32)     0           ['conv30_block23_1_bn[0][0]']    
 ion)                                                                                             
                                                                                                  
 conv30_block23_2_conv (Conv2D)  (8, 32, 32, 8)      2304        ['conv30_block23_1_actv[0][0]']  
                                                                                                  
 conv30_block23_2_bn (BatchNorm  (8, 32, 32, 8)      56          ['conv30_block23_2_conv[0][0]']  
 alization)                                                                                       
                                                                                                  
 conv30_block23_2_actv (Activat  (8, 32, 32, 8)      0           ['conv30_block23_2_bn[0][0]']    
 ion)                                                                                             
                                                                                                  
 conv30_block23_drop (Dropout)  (8, 32, 32, 8)       0           ['conv30_block23_2_actv[0][0]']  
                                                                                                  
 conv30_block23_concat (Concate  (8, 32, 32, 312)    0           ['conv30_block22_concat[0][0]',  
 nate)                                                            'conv30_block23_drop[0][0]']    
                                                                                                  
 conv30_block24_1_conv (Conv2D)  (8, 32, 32, 32)     9984        ['conv30_block23_concat[0][0]']  
                                                                                                  
 conv30_block24_1_bn (BatchNorm  (8, 32, 32, 32)     224         ['conv30_block24_1_conv[0][0]']  
 alization)                                                                                       
                                                                                                  
 conv30_block24_1_actv (Activat  (8, 32, 32, 32)     0           ['conv30_block24_1_bn[0][0]']    
 ion)                                                                                             
                                                                                                  
 conv30_block24_2_conv (Conv2D)  (8, 32, 32, 8)      2304        ['conv30_block24_1_actv[0][0]']  
                                                                                                  
 conv30_block24_2_bn (BatchNorm  (8, 32, 32, 8)      56          ['conv30_block24_2_conv[0][0]']  
 alization)                                                                                       
                                                                                                  
 conv30_block24_2_actv (Activat  (8, 32, 32, 8)      0           ['conv30_block24_2_bn[0][0]']    
 ion)                                                                                             
                                                                                                  
 conv30_block24_drop (Dropout)  (8, 32, 32, 8)       0           ['conv30_block24_2_actv[0][0]']  
                                                                                                  
…
 nate)                                                            'conv21_block28_drop[0][0]']    
                                                                                                  
 conv21_block29_1_conv (Conv2D)  (8, 64, 64, 32)     15360       ['conv21_block28_concat[0][0]']  
                                                                                                  
 conv21_block29_1_bn (BatchNorm  (8, 64, 64, 32)     224         ['conv21_block29_1_conv[0][0]']  
 alization)                                                                                       
                                                                                                  
 conv21_block29_1_actv (Activat  (8, 64, 64, 32)     0           ['conv21_block29_1_bn[0][0]']    
 ion)                                                                                             
                                                                                                  
 conv21_block29_2_conv (Conv2D)  (8, 64, 64, 8)      2304        ['conv21_block29_1_actv[0][0]']  
                                                                                                  
 conv21_block29_2_bn (BatchNorm  (8, 64, 64, 8)      56          ['conv21_block29_2_conv[0][0]']  
 alization)                                                                                       
                                                                                                  
 conv21_block29_2_actv (Activat  (8, 64, 64, 8)      0           ['conv21_block29_2_bn[0][0]']    
 ion)                                                                                             
                                                                                                  
 conv21_block29_drop (Dropout)  (8, 64, 64, 8)       0           ['conv21_block29_2_actv[0][0]']  
                                                                                                  
 conv21_block29_concat (Concate  (8, 64, 64, 488)    0           ['conv21_block28_concat[0][0]',  
 nate)                                                            'conv21_block29_drop[0][0]']    
                                                                                                  
 conv21_block30_1_conv (Conv2D)  (8, 64, 64, 32)     15616       ['conv21_block29_concat[0][0]']  
                                                                                                  
 conv21_block30_1_bn (BatchNorm  (8, 64, 64, 32)     224         ['conv21_block30_1_conv[0][0]']  
 alization)                                                                                       
                                                                                                  
 conv21_block30_1_actv (Activat  (8, 64, 64, 32)     0           ['conv21_block30_1_bn[0][0]']    
 ion)                                                                                             
                                                                                                  
 conv21_block30_2_conv (Conv2D)  (8, 64, 64, 8)      2304        ['conv21_block30_1_actv[0][0]']  
                                                                                                  
 conv21_block30_2_bn (BatchNorm  (8, 64, 64, 8)      56          ['conv21_block30_2_conv[0][0]']  
 alization)                                                                                       
                                                                                                  
 conv21_block30_2_actv (Activat  (8, 64, 64, 8)      0           ['conv21_block30_2_bn[0][0]']    
 ion)                                                                                             
                                                                                                  
 conv21_block30_drop (Dropout)  (8, 64, 64, 8)       0           ['conv21_block30_2_actv[0][0]']  
                                                                                                  
 conv21_block30_concat (Concate  (8, 64, 64, 496)    0           ['conv21_block29_concat[0][0]',  
 nate)                                                            'conv21_block30_drop[0][0]']    
                                                                                                  
 conv21_block31_1_conv (Conv2D)  (8, 64, 64, 32)     15872       ['conv21_block30_concat[0][0]']  
                                                                                                  
 conv21_block31_1_bn (BatchNorm  (8, 64, 64, 32)     224         ['conv21_block31_1_conv[0][0]']  
 alization)                                                                                       
                                                                                                  
 conv21_block31_1_actv (Activat  (8, 64, 64, 32)     0           ['conv21_block31_1_bn[0][0]']    
 ion)                                                                                             
                                                                                                  
 conv21_block31_2_conv (Conv2D)  (8, 64, 64, 8)      2304        ['conv21_block31_1_actv[0][0]']  
                                                                                                  
 conv21_block31_2_bn (BatchNorm  (8, 64, 64, 8)      56          ['conv21_block31_2_conv[0][0]']  
 alization)                                                                                       
                                                                                                  
 conv21_block31_2_actv (Activat  (8, 64, 64, 8)      0           ['conv21_block31_2_bn[0][0]']    
 ion)                                                                                             
                                                                                                  
 conv21_block31_drop (Dropout)  (8, 64, 64, 8)       0           ['conv21_block31_2_actv[0][0]']  
                                                                                                  
 conv21_block31_concat (Concate  (8, 64, 64, 504)    0           ['conv21_block30_concat[0][0]',  
 nate)                                                            'conv21_block31_drop[0][0]']    
                                                                                                  
 conv21_block32_1_conv (Conv2D)  (8, 64, 64, 32)     16128       ['conv21_block31_concat[0][0]']  
                                                                                                  
 conv21_block32_1_bn (BatchNorm  (8, 64, 64, 32)     224         ['conv21_block32_1_conv[0][0]']  
 alization)                                                                                       
                                                                                                  
 conv21_block32_1_actv (Activat  (8, 64, 64, 32)     0           ['conv21_block32_1_bn[0][0]']    
 ion)                                                                                             
                                                                                                  
 conv21_block32_2_conv (Conv2D)  (8, 64, 64, 8)      2304        ['conv21_block32_1_actv[0][0]']  
                                                                                                  
 conv21_block32_2_bn (BatchNorm  (8, 64, 64, 8)      56          ['conv21_block32_2_conv[0][0]']  
 alization)                                                                                       
                                                                                                  
 conv21_block32_2_actv (Activat  (8, 64, 64, 8)      0           ['conv21_block32_2_bn[0][0]']    
 ion)                                                                                             
                                                                                                  
 conv21_block32_drop (Dropout)  (8, 64, 64, 8)       0           ['conv21_block32_2_actv[0][0]']  
                                                                                                  
 conv21_block32_concat (Concate  (8, 64, 64, 512)    0           ['conv21_block31_concat[0][0]',  
 nate)                                                            'conv21_block32_drop[0][0]']    
                                                                                                  
 tran10_conv (Conv2D)           (8, 128, 128, 48)    5760        ['conv10_block12_concat[0][0]']  
                                                                                                  
 upsa21_conv (Conv2DTranspose)  (8, 128, 128, 128)   262144      ['conv21_block32_concat[0][0]']  
                                                                                                  
 tran10_bn (BatchNormalization)  (8, 128, 128, 48)   336         ['tran10_conv[0][0]']            
                                                                                                  
 upsa21_bn (BatchNormalization)  (8, 128, 128, 128)  896         ['upsa21_conv[0][0]']            
                                                                                                  
 tran10_actv (Activation)       (8, 128, 128, 48)    0           ['tran10_bn[0][0]']              
                                                                                                  
 upsa21_actv (Activation)       (8, 128, 128, 128)   0           ['upsa21_bn[0][0]']              
                                                                                                  
 conc12 (Concatenate)           (8, 128, 128, 176)   0           ['tran10_actv[0][0]',            
                                                                  'upsa21_actv[0][0]']            
                                                                                                  
 conv12_block1_1_conv (Conv2D)  (8, 128, 128, 32)    5632        ['conc12[0][0]']                 
                                                                                                  
 conv12_block1_1_bn (BatchNorma  (8, 128, 128, 32)   224         ['conv12_block1_1_conv[0][0]']   
 lization)                                                                                        
                                                                                                  
 conv12_block1_1_actv (Activati  (8, 128, 128, 32)   0           ['conv12_block1_1_bn[0][0]']     
 on)                                                                                              
                                                                                                  
 conv12_block1_2_conv (Conv2D)  (8, 128, 128, 8)     2304        ['conv12_block1_1_actv[0][0]']   
                                                                                                  
 conv12_block1_2_bn (BatchNorma  (8, 128, 128, 8)    56          ['conv12_block1_2_conv[0][0]']   
 lization)                                                                                        
                                                                                                  
 conv12_block1_2_actv (Activati  (8, 128, 128, 8)    0           ['conv12_block1_2_bn[0][0]']     
 on)                                                                                              
                                                                                                  
 conv12_block1_drop (Dropout)   (8, 128, 128, 8)     0           ['conv12_block1_2_actv[0][0]']   
                                                                                                  
 conv12_block1_concat (Concaten  (8, 128, 128, 184)  0           ['conc12[0][0]',                 
 ate)                                                             'conv12_block1_drop[0][0]']     
                                                                                                  
 conv12_block2_1_conv (Conv2D)  (8, 128, 128, 32)    5888        ['conv12_block1_concat[0][0]']   
                                                                                                  
 conv12_block2_1_bn (BatchNorma  (8, 128, 128, 32)   224         ['conv12_block2_1_conv[0][0]']   
 lization)                                                                                        
                                                                                                  
 conv12_block2_1_actv (Activati  (8, 128, 128, 32)   0           ['conv12_block2_1_bn[0][0]']     
 on)                                                                                              
                                                                                                  
 conv12_block2_2_conv (Conv2D)  (8, 128, 128, 8)     2304        ['conv12_block2_1_actv[0][0]']   
                                                                                                  
 conv12_block2_2_bn (BatchNorma  (8, 128, 128, 8)    56          ['conv12_block2_2_conv[0][0]']   
 lization)                                                                                        
                                                                                                  
 conv12_block2_2_actv (Activati  (8, 128, 128, 8)    0           ['conv12_block2_2_bn[0][0]']     
 on)                                                                                              
                                                                                                  
 conv12_block2_drop (Dropout)   (8, 128, 128, 8)     0           ['conv12_block2_2_actv[0][0]']   
                                                                                                  
 conv12_block2_concat (Concaten  (8, 128, 128, 192)  0           ['conv12_block1_concat[0][0]',   
 ate)                                                             'conv12_block2_drop[0][0]']     
                                                                                                  
 conv12_block3_1_conv (Conv2D)  (8, 128, 128, 32)    6144        ['conv12_block2_concat[0][0]']   
                                                                                                  
 conv12_block3_1_bn (BatchNorma  (8, 128, 128, 32)   224         ['conv12_block3_1_conv[0][0]']   
 lization)                                                                                        
                                                                                                  
 conv12_block3_1_actv (Activati  (8, 128, 128, 32)   0           ['conv12_block3_1_bn[0][0]']     
 on)                                                                                              
                                                                                                  
 conv12_block3_2_conv (Conv2D)  (8, 128, 128, 8)     2304        ['conv12_block3_1_actv[0][0]']   
                                                                                                  
 conv12_block3_2_bn (BatchNorma  (8, 128, 128, 8)    56          ['conv12_block3_2_conv[0][0]']   
 lization)                                                                                        
                                                                                                  
 conv12_block3_2_actv (Activati  (8, 128, 128, 8)    0           ['conv12_block3_2_bn[0][0]']     
 on)                                                                                              
                                                                                                  
 conv12_block3_drop (Dropout)   (8, 128, 128, 8)     0           ['conv12_block3_2_actv[0][0]']   
                                                                                                  
 conv12_block3_concat (Concaten  (8, 128, 128, 200)  0           ['conv12_block2_concat[0][0]',   
 ate)                                                             'conv12_block3_drop[0][0]']     
                                                                                                  
 conv12_block4_1_conv (Conv2D)  (8, 128, 128, 32)    6400        ['conv12_block3_concat[0][0]']   
                                                                                                  
 conv12_block4_1_bn (BatchNorma  (8, 128, 128, 32)   224         ['conv12_block4_1_conv[0][0]']   
 lization)                                                                                        
                                                                                                  
 conv12_block4_1_actv (Activati  (8, 128, 128, 32)   0           ['conv12_block4_1_bn[0][0]']     
 on)                                                                                              
                                                                                                  
 conv12_block4_2_conv (Conv2D)  (8, 128, 128, 8)     2304        ['conv12_block4_1_actv[0][0]']   
                                                                                                  
 conv12_block4_2_bn (BatchNorma  (8, 128, 128, 8)    56          ['conv12_block4_2_conv[0][0]']   
 lization)                                                                                        
                                                                                                  
 conv12_block4_2_actv (Activati  (8, 128, 128, 8)    0           ['conv12_block4_2_bn[0][0]']     
 on)                                                                                              
                                                                                                  
 conv12_block4_drop (Dropout)   (8, 128, 128, 8)     0           ['conv12_block4_2_actv[0][0]']   
                                                                                                  
 conv12_block4_concat (Concaten  (8, 128, 128, 208)  0           ['conv12_block3_concat[0][0]',   
 ate)                                                             'conv12_block4_drop[0][0]']     
                                                                                                  
 conv12_block5_1_conv (Conv2D)  (8, 128, 128, 32)    6656        ['conv12_block4_concat[0][0]']   
                                                                                                  
 conv12_block5_1_bn (BatchNorma  (8, 128, 128, 32)   224         ['conv12_block5_1_conv[0][0]']   
 lization)                                                                                        
                                                                                                  
 conv12_block5_1_actv (Activati  (8, 128, 128, 32)   0           ['conv12_block5_1_bn[0][0]']     
 on)                                                                                              
                                                                                                  
 conv12_block5_2_conv (Conv2D)  (8, 128, 128, 8)     2304        ['conv12_block5_1_actv[0][0]']   
                                                                                                  
 conv12_block5_2_bn (BatchNorma  (8, 128, 128, 8)    56          ['conv12_block5_2_conv[0][0]']   
 lization)                                                                                        
                                                                                                  
 conv12_block5_2_actv (Activati  (8, 128, 128, 8)    0           ['conv12_block5_2_bn[0][0]']     
 on)                                                                                              
                                                                                                  
 conv12_block5_drop (Dropout)   (8, 128, 128, 8)     0           ['conv12_block5_2_actv[0][0]']   
                                                                                                  
 conv12_block5_concat (Concaten  (8, 128, 128, 216)  0           ['conv12_block4_concat[0][0]',   
 ate)                                                             'conv12_block5_drop[0][0]']     
                                                                                                  
 conv12_block6_1_conv (Conv2D)  (8, 128, 128, 32)    6912        ['conv12_block5_concat[0][0]']   
                                                                                                  
 conv12_block6_1_bn (BatchNorma  (8, 128, 128, 32)   224         ['conv12_block6_1_conv[0][0]']   
 lization)                                                                                        
                                                                                                  
 conv12_block6_1_actv (Activati  (8, 128, 128, 32)   0           ['conv12_block6_1_bn[0][0]']     
 on)                                                                                              
                                                                                                  
 conv12_block6_2_conv (Conv2D)  (8, 128, 128, 8)     2304        ['conv12_block6_1_actv[0][0]']   
                                                                                                  
 conv12_block6_2_bn (BatchNorma  (8, 128, 128, 8)    56          ['conv12_block6_2_conv[0][0]']   
 lization)                                                                                        
                                                                                                  
 conv12_block6_2_actv (Activati  (8, 128, 128, 8)    0           ['conv12_block6_2_bn[0][0]']     
 on)                                                                                              
                                                                                                  
 conv12_block6_drop (Dropout)   (8, 128, 128, 8)     0           ['conv12_block6_2_actv[0][0]']   
                                                                                                  
 conv12_block6_concat (Concaten  (8, 128, 128, 224)  0           ['conv12_block5_concat[0][0]',   
 ate)                                                             'conv12_block6_drop[0][0]']     
                                                                                                  
 conv12_block7_1_conv (Conv2D)  (8, 128, 128, 32)    7168        ['conv12_block6_concat[0][0]']   
                                                                                                  
 conv12_block7_1_bn (BatchNorma  (8, 128, 128, 32)   224         ['conv12_block7_1_conv[0][0]']   
 lization)                                                                                        
                                                                                                  
 conv12_block7_1_actv (Activati  (8, 128, 128, 32)   0           ['conv12_block7_1_bn[0][0]']     
 on)                                                                                              
                                                                                                  
 conv12_block7_2_conv (Conv2D)  (8, 128, 128, 8)     2304        ['conv12_block7_1_actv[0][0]']   
                                                                                                  
 conv12_block7_2_bn (BatchNorma  (8, 128, 128, 8)    56          ['conv12_block7_2_conv[0][0]']   
 lization)                                                                                        
                                                                                                  
 conv12_block7_2_actv (Activati  (8, 128, 128, 8)    0           ['conv12_block7_2_bn[0][0]']     
 on)                                                                                              
                                                                                                  
 conv12_block7_drop (Dropout)   (8, 128, 128, 8)     0           ['conv12_block7_2_actv[0][0]']   
                                                                                                  
 conv12_block7_concat (Concaten  (8, 128, 128, 232)  0           ['conv12_block6_concat[0][0]',   
 ate)                                                             'conv12_block7_drop[0][0]']     
                                                                                                  
 conv12_block8_1_conv (Conv2D)  (8, 128, 128, 32)    7424        ['conv12_block7_concat[0][0]']   
                                                                                                  
 conv12_block8_1_bn (BatchNorma  (8, 128, 128, 32)   224         ['conv12_block8_1_conv[0][0]']   
 lization)                                                                                        
                                                                                                  
 conv12_block8_1_actv (Activati  (8, 128, 128, 32)   0           ['conv12_block8_1_bn[0][0]']     
 on)                                                                                              
                                                                                                  
 conv12_block8_2_conv (Conv2D)  (8, 128, 128, 8)     2304        ['conv12_block8_1_actv[0][0]']   
                                                                                                  
 conv12_block8_2_bn (BatchNorma  (8, 128, 128, 8)    56          ['conv12_block8_2_conv[0][0]']   
 lization)                                                                                        
                                                                                                  
 conv12_block8_2_actv (Activati  (8, 128, 128, 8)    0           ['conv12_block8_2_bn[0][0]']     
 on)                                                                                              
                                                                                                  
 conv12_block8_drop (Dropout)   (8, 128, 128, 8)     0           ['conv12_block8_2_actv[0][0]']   
                                                                                                  
 conv12_block8_concat (Concaten  (8, 128, 128, 240)  0           ['conv12_block7_concat[0][0]',   
 ate)                                                             'conv12_block8_drop[0][0]']     
                                                                                                  
 conv12_block9_1_conv (Conv2D)  (8, 128, 128, 32)    7680        ['conv12_block8_concat[0][0]']   
                                                                                                  
 conv12_block9_1_bn (BatchNorma  (8, 128, 128, 32)   224         ['conv12_block9_1_conv[0][0]']   
 lization)                                                                                        
                                                                                                  
 conv12_block9_1_actv (Activati  (8, 128, 128, 32)   0           ['conv12_block9_1_bn[0][0]']     
 on)                                                                                              
                                                                                                  
 conv12_block9_2_conv (Conv2D)  (8, 128, 128, 8)     2304        ['conv12_block9_1_actv[0][0]']   
                                                                                                  
 conv12_block9_2_bn (BatchNorma  (8, 128, 128, 8)    56          ['conv12_block9_2_conv[0][0]']   
 lization)                                                                                        
                                                                                                  
 conv12_block9_2_actv (Activati  (8, 128, 128, 8)    0           ['conv12_block9_2_bn[0][0]']     
 on)                                                                                              
                                                                                                  
 conv12_block9_drop (Dropout)   (8, 128, 128, 8)     0           ['conv12_block9_2_actv[0][0]']   
                                                                                                  
 conv12_block9_concat (Concaten  (8, 128, 128, 248)  0           ['conv12_block8_concat[0][0]',   
 ate)                                                             'conv12_block9_drop[0][0]']     
                                                                                                  
 conv12_block10_1_conv (Conv2D)  (8, 128, 128, 32)   7936        ['conv12_block9_concat[0][0]']   
                                                                                                  
 conv12_block10_1_bn (BatchNorm  (8, 128, 128, 32)   224         ['conv12_block10_1_conv[0][0]']  
 alization)                                                                                       
                                                                                                  
 conv12_block10_1_actv (Activat  (8, 128, 128, 32)   0           ['conv12_block10_1_bn[0][0]']    
 ion)                                                                                             
                                                                                                  
 conv12_block10_2_conv (Conv2D)  (8, 128, 128, 8)    2304        ['conv12_block10_1_actv[0][0]']  
                                                                                                  
 conv12_block10_2_bn (BatchNorm  (8, 128, 128, 8)    56          ['conv12_block10_2_conv[0][0]']  
 alization)                                                                                       
                                                                                                  
 conv12_block10_2_actv (Activat  (8, 128, 128, 8)    0           ['conv12_block10_2_bn[0][0]']    
 ion)                                                                                             
                                                                                                  
 conv12_block10_drop (Dropout)  (8, 128, 128, 8)     0           ['conv12_block10_2_actv[0][0]']  
                                                                                                  
 conv12_block10_concat (Concate  (8, 128, 128, 256)  0           ['conv12_block9_concat[0][0]',   
 nate)                                                            'conv12_block10_drop[0][0]']    
                                                                                                  
 conv12_block11_1_conv (Conv2D)  (8, 128, 128, 32)   8192        ['conv12_block10_concat[0][0]']  
                                                                                                  
 conv12_block11_1_bn (BatchNorm  (8, 128, 128, 32)   224         ['conv12_block11_1_conv[0][0]']  
 alization)                                                                                       
                                                                                                  
 conv12_block11_1_actv (Activat  (8, 128, 128, 32)   0           ['conv12_block11_1_bn[0][0]']    
 ion)                                                                                             
                                                                                                  
 conv12_block11_2_conv (Conv2D)  (8, 128, 128, 8)    2304        ['conv12_block11_1_actv[0][0]']  
                                                                                                  
 conv12_block11_2_bn (BatchNorm  (8, 128, 128, 8)    56          ['conv12_block11_2_conv[0][0]']  
 alization)                                                                                       
                                                                                                  
 conv12_block11_2_actv (Activat  (8, 128, 128, 8)    0           ['conv12_block11_2_bn[0][0]']    
 ion)                                                                                             
                                                                                                  
 conv12_block11_drop (Dropout)  (8, 128, 128, 8)     0           ['conv12_block11_2_actv[0][0]']  
                                                                                                  
 conv12_block11_concat (Concate  (8, 128, 128, 264)  0           ['conv12_block10_concat[0][0]',  
 nate)                                                            'conv12_block11_drop[0][0]']    
                                                                                                  
 conv12_block12_1_conv (Conv2D)  (8, 128, 128, 32)   8448        ['conv12_block11_concat[0][0]']  
                                                                                                  
 conv12_block12_1_bn (BatchNorm  (8, 128, 128, 32)   224         ['conv12_block12_1_conv[0][0]']  
 alization)                                                                                       
                                                                                                  
 conv12_block12_1_actv (Activat  (8, 128, 128, 32)   0           ['conv12_block12_1_bn[0][0]']    
 ion)                                                                                             
                                                                                                  
 conv12_block12_2_conv (Conv2D)  (8, 128, 128, 8)    2304        ['conv12_block12_1_actv[0][0]']  
                                                                                                  
 conv12_block12_2_bn (BatchNorm  (8, 128, 128, 8)    56          ['conv12_block12_2_conv[0][0]']  
 alization)                                                                                       
                                                                                                  
 conv12_block12_2_actv (Activat  (8, 128, 128, 8)    0           ['conv12_block12_2_bn[0][0]']    
 ion)                                                                                             
                                                                                                  
 conv12_block12_drop (Dropout)  (8, 128, 128, 8)     0           ['conv12_block12_2_actv[0][0]']  
                                                                                                  
 conv12_block12_concat (Concate  (8, 128, 128, 272)  0           ['conv12_block11_concat[0][0]',  
 nate)                                                            'conv12_block12_drop[0][0]']    
                                                                                                  
 tran00_conv (Conv2D)           (8, 256, 256, 24)    1176        ['conv00_block6_concat[0][0]']   
                                                                                                  
 upsa12_conv (Conv2DTranspose)  (8, 256, 256, 48)    52224       ['conv12_block12_concat[0][0]']  
                                                                                                  
 tran00_bn (BatchNormalization)  (8, 256, 256, 24)   168         ['tran00_conv[0][0]']            
                                                                                                  
 upsa12_bn (BatchNormalization)  (8, 256, 256, 48)   336         ['upsa12_conv[0][0]']            
                                                                                                  
 tran00_actv (Activation)       (8, 256, 256, 24)    0           ['tran00_bn[0][0]']              
                                                                                                  
 upsa12_actv (Activation)       (8, 256, 256, 48)    0           ['upsa12_bn[0][0]']              
                                                                                                  
 conc_final (Concatenate)       (8, 256, 256, 72)    0           ['tran00_actv[0][0]',            
                                                                  'upsa12_actv[0][0]']            
                                                                                                  
 conv_fin_block1_1_conv (Conv2D  (8, 256, 256, 32)   2304        ['conc_final[0][0]']             
 )                                                                                                
                                                                                                  
 conv_fin_block1_1_bn (BatchNor  (8, 256, 256, 32)   224         ['conv_fin_block1_1_conv[0][0]'] 
 malization)                                                                                      
                                                                                                  
 conv_fin_block1_1_actv (Activa  (8, 256, 256, 32)   0           ['conv_fin_block1_1_bn[0][0]']   
 tion)                                                                                            
                                                                                                  
 conv_fin_block1_2_conv (Conv2D  (8, 256, 256, 8)    2304        ['conv_fin_block1_1_actv[0][0]'] 
 )                                                                                                
                                                                                                  
 conv_fin_block1_2_bn (BatchNor  (8, 256, 256, 8)    56          ['conv_fin_block1_2_conv[0][0]'] 
 malization)                                                                                      
                                                                                                  
 conv_fin_block1_2_actv (Activa  (8, 256, 256, 8)    0           ['conv_fin_block1_2_bn[0][0]']   
 tion)                                                                                            
                                                                                                  
 conv_fin_block1_concat (Concat  (8, 256, 256, 80)   0           ['conc_final[0][0]',             
 enate)                                                           'conv_fin_block1_2_actv[0][0]'] 
                                                                                                  
 conv_fin_block2_1_conv (Conv2D  (8, 256, 256, 32)   2560        ['conv_fin_block1_concat[0][0]'] 
 )                                                                                                
                                                                                                  
 conv_fin_block2_1_bn (BatchNor  (8, 256, 256, 32)   224         ['conv_fin_block2_1_conv[0][0]'] 
 malization)                                                                                      
                                                                                                  
 conv_fin_block2_1_actv (Activa  (8, 256, 256, 32)   0           ['conv_fin_block2_1_bn[0][0]']   
 tion)                                                                                            
                                                                                                  
 conv_fin_block2_2_conv (Conv2D  (8, 256, 256, 8)    2304        ['conv_fin_block2_1_actv[0][0]'] 
 )                                                                                                
                                                                                                  
 conv_fin_block2_2_bn (BatchNor  (8, 256, 256, 8)    56          ['conv_fin_block2_2_conv[0][0]'] 
 malization)                                                                                      
                                                                                                  
 conv_fin_block2_2_actv (Activa  (8, 256, 256, 8)    0           ['conv_fin_block2_2_bn[0][0]']   
 tion)                                                                                            
                                                                                                  
 conv_fin_block2_concat (Concat  (8, 256, 256, 88)   0           ['conv_fin_block1_concat[0][0]', 
 enate)                                                           'conv_fin_block2_2_actv[0][0]'] 
                                                                                                  
 conv_fin_block3_1_conv (Conv2D  (8, 256, 256, 32)   2816        ['conv_fin_block2_concat[0][0]'] 
 )                                                                                                
                                                                                                  
 conv_fin_block3_1_bn (BatchNor  (8, 256, 256, 32)   224         ['conv_fin_block3_1_conv[0][0]'] 
 malization)                                                                                      
                                                                                                  
 conv_fin_block3_1_actv (Activa  (8, 256, 256, 32)   0           ['conv_fin_block3_1_bn[0][0]']   
 tion)                                                                                            
                                                                                                  
 conv_fin_block3_2_conv (Conv2D  (8, 256, 256, 8)    2304        ['conv_fin_block3_1_actv[0][0]'] 
 )                                                                                                
                                                                                                  
 conv_fin_block3_2_bn (BatchNor  (8, 256, 256, 8)    56          ['conv_fin_block3_2_conv[0][0]'] 
 malization)                                                                                      
                                                                                                  
 conv_fin_block3_2_actv (Activa  (8, 256, 256, 8)    0           ['conv_fin_block3_2_bn[0][0]']   
 tion)                                                                                            
                                                                                                  
 conv_fin_block3_concat (Concat  (8, 256, 256, 96)   0           ['conv_fin_block2_concat[0][0]', 
 enate)                                                           'conv_fin_block3_2_actv[0][0]'] 
                                                                                                  
 conv_fin_block4_1_conv (Conv2D  (8, 256, 256, 32)   3072        ['conv_fin_block3_concat[0][0]'] 
 )                                                                                                
                                                                                                  
 conv_fin_block4_1_bn (BatchNor  (8, 256, 256, 32)   224         ['conv_fin_block4_1_conv[0][0]'] 
 malization)                                                                                      
                                                                                                  
 conv_fin_block4_1_actv (Activa  (8, 256, 256, 32)   0           ['conv_fin_block4_1_bn[0][0]']   
 tion)                                                                                            
                                                                                                  
 conv_fin_block4_2_conv (Conv2D  (8, 256, 256, 8)    2304        ['conv_fin_block4_1_actv[0][0]'] 
 )                                                                                                
                                                                                                  
 conv_fin_block4_2_bn (BatchNor  (8, 256, 256, 8)    56          ['conv_fin_block4_2_conv[0][0]'] 
 malization)                                                                                      
                                                                                                  
 conv_fin_block4_2_actv (Activa  (8, 256, 256, 8)    0           ['conv_fin_block4_2_bn[0][0]']   
 tion)                                                                                            
                                                                                                  
 conv_fin_block4_concat (Concat  (8, 256, 256, 104)  0           ['conv_fin_block3_concat[0][0]', 
 enate)                                                           'conv_fin_block4_2_actv[0][0]'] 
                                                                                                  
 conv_fin_block5_1_conv (Conv2D  (8, 256, 256, 32)   3328        ['conv_fin_block4_concat[0][0]'] 
 )                                                                                                
                                                                                                  
 conv_fin_block5_1_bn (BatchNor  (8, 256, 256, 32)   224         ['conv_fin_block5_1_conv[0][0]'] 
 malization)                                                                                      
                                                                                                  
 conv_fin_block5_1_actv (Activa  (8, 256, 256, 32)   0           ['conv_fin_block5_1_bn[0][0]']   
 tion)                                                                                            
                                                                                                  
 conv_fin_block5_2_conv (Conv2D  (8, 256, 256, 8)    2304        ['conv_fin_block5_1_actv[0][0]'] 
 )                                                                                                
                                                                                                  
 conv_fin_block5_2_bn (BatchNor  (8, 256, 256, 8)    56          ['conv_fin_block5_2_conv[0][0]'] 
 malization)                                                                                      
                                                                                                  
 conv_fin_block5_2_actv (Activa  (8, 256, 256, 8)    0           ['conv_fin_block5_2_bn[0][0]']   
 tion)                                                                                            
                                                                                                  
 conv_fin_block5_concat (Concat  (8, 256, 256, 112)  0           ['conv_fin_block4_concat[0][0]', 
 enate)                                                           'conv_fin_block5_2_actv[0][0]'] 
                                                                                                  
 conv_fin_block6_1_conv (Conv2D  (8, 256, 256, 32)   3584        ['conv_fin_block5_concat[0][0]'] 
 )                                                                                                
                                                                                                  
 conv_fin_block6_1_bn (BatchNor  (8, 256, 256, 32)   224         ['conv_fin_block6_1_conv[0][0]'] 
 malization)                                                                                      
                                                                                                  
 conv_fin_block6_1_actv (Activa  (8, 256, 256, 32)   0           ['conv_fin_block6_1_bn[0][0]']   
 tion)                                                                                            
                                                                                                  
 conv_fin_block6_2_conv (Conv2D  (8, 256, 256, 8)    2304        ['conv_fin_block6_1_actv[0][0]'] 
 )                                                                                                
                                                                                                  
 conv_fin_block6_2_bn (BatchNor  (8, 256, 256, 8)    56          ['conv_fin_block6_2_conv[0][0]'] 
 malization)                                                                                      
                                                                                                  
 conv_fin_block6_2_actv (Activa  (8, 256, 256, 8)    0           ['conv_fin_block6_2_bn[0][0]']   
 tion)                                                                                            
                                                                                                  
 conv_fin_block6_concat (Concat  (8, 256, 256, 120)  0           ['conv_fin_block5_concat[0][0]', 
 enate)                                                           'conv_fin_block6_2_actv[0][0]'] 
                                                                                                  
 conv05_feat_conv (Conv2D)      (8, 256, 256, 3)     360         ['conv_fin_block6_concat[0][0]'] 
                                                                                                  
 conv05_feat_bn (BatchNormaliza  (8, 256, 256, 3)    21          ['conv05_feat_conv[0][0]']       
 tion)                                                                                            
                                                                                                  
 conv05_feat_actv (Activation)  (8, 256, 256, 3)     0           ['conv05_feat_bn[0][0]']         
                                                                                                  
 conv05_class (Activation)      (8, 256, 256, 3)     0           ['conv05_feat_actv[0][0]']       
                                                                                                  
==================================================================================================
Total params: 2,032,069
Trainable params: 2,003,094
Non-trainable params: 28,975
__________________________________________________________________________________________________
